p1_navigation/checkpoint.pth (torch_old, 63308 bytes, 9 tensors)

feature_layers.0.weight f4 [128, 37]
0.018924981 0.0328897 -0.2420597 -0.2865562 0.07077942 0.1854566 -0.35296625 0.179252
-0.06351811 -0.43762755 -0.32242733 -0.048213832 -0.26993793 -0.008507752 -0.522567 -0.09770822
0.031419218 -0.33348346 -0.009190315 -0.049046915 0.10350785 0.10650702 -0.07020418 -0.056366425
0.026486 0.06538989 0.1395962 -0.22269449 -0.33416742 0.037955817 -0.06504733 -0.060037337
0.15015572 -0.33046836 -0.28917998 0.0035957713 -0.034983434 0.116692975 -0.030121556 -0.02412136
0.17241871 -0.2189427 0.11830894 -0.3534966 -0.24941199 -0.07266103 0.1830862 0.0745692
-0.1298255 -0.04132128 0.026854627 -0.0049386458 0.096594125 -0.101788245 0.050585564 -0.047946393
-0.055486124 0.023332313 -0.38471118 -0.18980217 -0.03432546 -0.22293217 0.042817842 -0.1508753
-0.058657166 -0.023240784 -0.14482993 0.048229307 -0.04023919 0.01697366 0.031369522 -0.11598473
0.07604677 0.030399194 0.19702753 -0.17393963 0.009813924 0.0026739638 0.0064732926 -0.006100086
-0.055685606 0.045131315 -0.033091124 -0.04824594 0.026710965 0.030980643 -0.010274683 -0.31479907
-0.12504756 0.0229974 -0.20145833 0.0847973 0.042679675 0.03661602 -0.34019384 -0.09198816
0.008264984 0.036085427 -0.20884782 -0.21148479 0.26252133 0.0016194603 -0.039614197 0.045375533
-0.31760678 0.092606686 -0.43874896 0.007946912 -0.28885606 0.15487032 -0.10481697 0.16341203
-0.23892015 0.059680354 -0.0080820015 -0.27145833 -0.14545326 -0.29213998 0.20216723 -0.057703275
-0.3683737 -0.06852306 -0.10378483 0.13332409 -0.101519495 -0.20733912 -0.14060709 -0.11166944
0.00558385 -0.19442458 -0.18011281 0.16049246 -0.41362736 -0.06590533 0.039346293 -0.047213573
-0.07930177 -0.035537098 0.1150483 -0.069345236 -0.044570904 -0.06767064 0.022206413 0.191157
-0.20231722 -0.3451567 0.12474851 -0.06426195 -0.066726156 -0.0009821539 -0.06282358 -0.21420099
-0.017771466 0.25971672 0.13857813 -0.3243652 0.013883989 -0.8992044 0.010117454 -0.027136926
-0.09247302 0.094285 -0.11683481 -0.025696289 -0.10912147 0.04995863 -0.08790924 -0.12463277
-0.089270405 0.033401772 0.1612571 0.0044655437 0.31214806 0.15467453 -0.0678849 0.121140756
-0.090192415 -0.29487577 0.16304849 -0.083715945 0.09729912 0.036330078 0.30813026 0.014365798
0.05525256 0.09136605 -0.2056413 -0.032261625 -0.040663626 -0.03326736 0.057112943 0.06645546
-0.167638 -0.013075467 0.28125125 -0.16059431 -0.12919956 -0.000318451 -0.08870676 0.078276455
0.019116443 0.06421243 -0.06157406 -0.3356322 -0.2064687 -0.07877077 -0.0072480156 0.13639684
0.03920721 0.0805936 0.0029364298 -0.08385882 -0.08410285 0.09450807 0.09148525 -0.015341466
-0.25707522 -0.14051522 0.26082355 -0.13231617 0.2194194 0.061278738 0.031174758 -0.023978297
-0.03847041 0.018695941 -0.05590016 -0.06617799 0.081876315 -0.10763494 0.06533611 0.19585934
-0.10969325 0.06817648 0.07755973 0.17525612 0.18623391 -0.068139166 -0.051026754 -0.002230712
0.09121301 0.035410102 -0.18045641 -0.06388986 0.14212105 0.051353313 0.35733858 -0.033081442
-0.06487111 -0.052382022 -0.0734516 -0.017337346 0.3310611 -0.17186485 -0.26120383 -0.17364985
00000000: 9008 9b3c 5ab7 063d 7fde 77be 7fb7 92be
00000010: cdf4 903d 56e8 3d3e feb7 b4be d68d 373e
00000020: c815 82bd b810 e0be 3215 a5be de7b 45bd
00000030: 4e35 8abe 1964 0bbc f3c6 05bf 3f1b c8bd
00000040: 70b1 003d 58be aabe fa92 16bc 6be5 48bd
00000050: ecfb d33d 5a20 da3d 36c7 8fbd 7be0 66bd
00000060: 2bf9 d83c 22eb 853d 4ef2 0e3e 060a 64be
00000070: fe17 abbe 8f77 1b3d 8937 85bd b6e9 75bd
00000080: 6cc2 193e 2633 a9be 660f 94be 08a7 6b3b
00000090: ca4a 0fbd bafc ee3d 7bc1 f6bc 299a c5bc
000000a0: 888e 303e 8432 60be f54b f23d 82fd b4be
000000b0: db65 7fbe 4ecf 94bd f37a 3b3e bdb7 983d
000000c0: faf0 04be 8140 29bd 3cfe db3c 5dd4 a1bb
000000d0: 24d3 c53d 5b76 d0bd cf32 4f3d 7063 44bd
000000e0: 6b45 63bd 6823 bf3c ddf8 c4be 805b 42be
000000f0: db98 0cbd 5548 64be c361 2f3d 0e7f 1abe
00000100: 7f42 70bd 7563 bebc 4c4e 14be 188c 453d
00000110: d9d1 24bd 580c 8b3c 547d 003d 6789 edbd
00000120: 69be 9b3d bb07 f93c 96c1 493e 3b1d 32be
00000130: 95ca 203c ab3d 2f3b ea1d d43b 3be3 c7bb
00000140: 9716 64bd 9ddb 383d 8f8a 07bd 899d 45bd
00000150: f4d0 da3c 1ecb fd3c 2557 28bc 582d a1be
00000160: 780c 00be 0b65 bc3c 184b 4ebe 35aa ad3d
00000170: e2d0 2e3d aefa 153d e32d aebe 4a64 bcbd
00000180: db69 073c 50ce 133d 34dc 55be 788f 58be
00000190: 3269 863e 1244 d43a 7f42 22bd b2db 393d
000001a0: 5b9d a2be 93a8 bd3d b4a3 e0be c433 023c
000001b0: f1e4 93be 5396 1e3e 48aa d6bd 7c55 273e
000001c0: 7ca7 74be 6373 743d 5f6a 04bc 96fc 8abe
000001d0: b3f1 14be 5f93 95be ed04 4f3e 455a 6cbd
000001e0: 7a9b bcbe d155 8cbd 248d d4bd 1c86 083e
000001f0: 74e9 cfbd b550 54be 4efb 0fbe f3b2 e4bd
00000200: bbf8 b63b 3d17 47be 7e6f 38be 2358 243e
00000210: f7c6 d3be 60f9 86bd 9429 213d 0563 41bd
00000220: f768 a2bd 598f 11bd 719e eb3d e004 8ebd
00000230: fb8f 36bd e896 8abd 39ea b53c a9be 433e
00000240: 3f2c 4fbe 61b8 b0be 267c ff3d c59b 83bd
00000250: b9a7 88bd 9ebb 80ba a6a9 80bd 8157 5bbe
00000260: 7795 91bc 97f9 843e 6de7 0d3e 3213 a6be
00000270: ac79 633c 4232 66bf aec3 253c 424e debc
00000280: 7f62 bdbd 7e18 c13d 1747 efbd 0681 d2bc
00000290: 147b dfbd 6ca1 4c3d c209 b4bd 773f ffbd
000002a0: 67d3 b6bd 4cd0 083d 9520 253e b253 923b
000002b0: dfd1 9f3e 0063 1e3e 3d07 8bbd a518 f83d
000002c0: cdb6 b8bd f5f9 96be 2ff6 263e 4473 abbd
000002d0: c344 c73d d9ce 143d 40c3 9d3e 865e 6b3c
000002e0: 8250 623d 201e bb3d a293 52be c424 04bd
000002f0: e78e 26bd 5b43 08bd 43ef 693d cd19 883d
00000300: 4ca9 2bbe 7c3a 56bc 2a00 903e d672 24be
00000310: e44c 04be c5f5 a6b9 e4ab b5bd 684f a03d
00000320: 169a 9c3c ce81 833d 1535 7cbd fcd7 abbe
00000330: 886c 53be 9252 a1bd c380 edbb 9dab 0b3e
00000340: bd97 203d 420e a53d 1e71 403b 2cbe abbd
00000350: 1d3e acbd 728d c13d 9e5c bb3d c65a 7bbc
00000360: 5d9f 83be 39e3 0fbe aa8a 853e e47d 07be
00000370: 7baf 603e 6aff 7a3d 3562 ff3c 226e c4bc
00000380: 2693 1dbd 3b28 993c 91f7 64bd 5388 87bd
00000390: c5ae a73d b56f dcbd f0ce 853d 5a8f 483e
000003a0: dba6 e0bd 1ca0 8b3d a3d7 9e3d 5776 333e
000003b0: 1ab4 3e3e 8c8c 8bbd 6e01 51bd 2331 12bb
000003c0: e3cd ba3d 2f0a 113d 91c9 38be b0d8 82bd
000003d0: 2e88 113e da57 523d 15f5 b63e 6880 07bd
000003e0: 25db 84bd 888e 56bd cb6d 96bd 0d07 8ebc
000003f0: d780 a93e 57fd 2fbe 82bc 85be 44d1 31be

feature_layers.0.bias f4 [128]
-0.08912211 -0.044612017 -0.13328421 -0.10997744 0.070890695 -0.15942496 0.11232183 0.036421288
-0.124813646 -0.020378524 -0.15011175 0.003957613 -0.031922642 -0.034181193 -0.13924076 0.07034561
0.07528255 0.003270638 -0.11504259 0.050919063 -0.111993715 0.054178875 0.15361801 -0.09187151
-0.009045655 0.030331602 0.1122245 -0.15471669 -0.08619139 -0.033666342 0.1756559 0.08791909
-0.04456611 0.018404882 -0.017034486 -0.28064254 0.02212334 0.09402785 -0.07254513 -0.053103853
0.04461823 0.047065757 0.15011998 0.08090026 0.009947915 -0.020321425 0.1404007 -0.14500622
-0.17497993 0.14234956 0.024239575 0.07605031 0.010145453 -0.056776393 0.055793703 0.051830005
-0.019840827 0.03543282 -0.017480168 -0.08023119 -0.11927602 -0.0069623007 0.06716358 0.045850873
0.18465365 0.081635915 -0.013391291 -0.023940438 -0.16689777 0.014876193 -0.0024318718 -0.12623808
0.056674372 -0.17756885 -0.046796646 -0.039233737 0.1013166 -0.1661053 0.020836893 0.07065536
0.039555814 0.031419564 -0.04348273 -0.035182253 -0.057451237 0.21887004 0.14661358 -0.07545309
0.11672845 -0.007781355 0.09131867 0.033569835 -0.11070933 -0.11780716 -0.042845428 0.1516517
-0.10557652 -0.17768186 -0.09960499 0.10528536 -0.08274135 -0.21872646 0.14349096 0.19057265
-0.25108033 -0.1983154 -0.02804829 0.05558948 -0.16358638 -0.0128706815 0.15106781 -0.086104415
-0.0682919 -0.17338973 -0.039507248 0.14976834 0.091551416 0.119167335 -0.07317552 -0.11837019
-0.008287608 0.07775667 -0.09633843 -0.1772496 -0.109084494 0.103123896 0.14533378 -0.08304263
00000000: a785 b6bd 17bb 36bd a87b 08be da3b e1bd
00000010: 242f 913d 4c40 23be fd08 e63d 7d2e 153d
00000020: 4c9e ffbd ddf0 a6bc e5b6 19be ddae 813b
00000030: 51c1 02bd 9401 0cbd 2195 0ebe 5c11 903d
00000040: bd2d 9a3d 3358 563b 739b ebbd 8290 503d
00000050: f65c e5bd abea 5d3d 0a4e 1d3e 2127 bcbd
00000060: 3a34 14bc fb79 f83c f5d5 e53d 0d6e 1ebe
00000070: 1d85 b0bd b8e5 09bd 24df 333e ed0e b43d
00000080: f48a 36bd d6c5 963c e88b 8bbc 61b0 8fbe
00000090: 023c b53c ac91 c03d 8b92 94bd 6d83 59bd
000000a0: 9bc1 363d 06c8 403d 0db9 193e 09af a53d
000000b0: 94fc 223c 1e79 a6bc 33c5 0f3e 837c 14be
000000c0: f02d 33be 15c4 113e 1392 c63c 44c0 9b3d
000000d0: 1d39 263c 5d8e 68bd f087 643d b34b 543d
000000e0: 3b89 a2bc 0122 113d 9232 8fbc 4050 a4bd
000000f0: fc46 f4bd 0324 e4bb 0f8d 893d 20ce 3b3d
00000100: d915 3d3e bb30 a73d 2567 5bbc bd1e c4bc
00000110: 40e7 2abe 47bb 733c 0a60 1fbb 8e44 01be
00000120: 6323 683d 9cd4 35be d7ad 3fbd 8eb3 20bd
00000130: 147f cf3d 8217 2abe 22b2 aa3c c2b3 903d
00000140: 4705 223d cdb1 003d f21a 32bd 441b 10bd
00000150: fd51 6bbd 781f 603e df21 163e 2687 9abd
00000160: 530f ef3d bdfa febb 4805 bb3d 8680 093d
00000170: 93bb e2bd e144 f1bd b07e 2fbd 954a 1b3e
00000180: 8138 d8bd 3cf2 35be b3fd cbbd da9f d73d
00000190: 4c74 a9bd d4f9 5fbe 4bef 123e 7a25 433e
000001a0: 9a8d 80be 3113 4bbe 87c5 e5bc cbb1 633d
000001b0: 3083 27be 8ddf 52bc 85b1 1a3e 8357 b0bd
000001c0: a0dc 8bbd 148d 31be 5ad2 21bd df5c 193e
000001d0: 4f7f bb3d 010e f43d 0cdd 95bd 126c f2bd
000001e0: bfc8 07bc e43e 9f3d 154d c5bd eb80 35be
000001f0: b167 dfbd 9f32 d33d 61d2 143e 4112 aabd

feature_layers.2.weight f4 [64, 128]
-0.030928023 -0.006998024 -0.23982227 0.123543374 0.07523887 0.014220614 0.07847136 0.23651129
0.033994567 -0.043013684 0.050790396 -0.21276706 0.0010104306 -0.1167108 -0.124531254 0.001427674
0.046223477 -0.123606995 -0.1549296 -0.18950792 0.06648985 0.09772757 -0.18872151 -0.023968777
-0.09992001 0.19292696 -0.09226872 -0.12121266 -0.15780725 -0.0050350185 -0.1277683 0.01354204
0.098521434 -0.036281522 0.041240584 0.022599239 -0.058423694 -0.055047195 0.16683276 0.06845669
-0.0042005708 0.06482924 -0.099375926 0.28883168 0.069844685 0.020552982 -0.101411305 -0.17151679
-0.044782966 -0.06594136 -0.106568724 -0.25566602 0.033318624 -0.19392155 -0.020870399 0.018236753
-0.09971613 -0.041779626 0.020873237 0.10875961 0.16461772 -0.1969201 0.016838992 -0.21268341
0.065588266 0.06542767 0.083969966 -0.21861818 0.036862805 -0.0037724557 0.13478859 0.02102704
0.05939141 -0.012880074 -0.014723654 0.060325023 -0.14586668 -0.070568345 0.050794687 0.1309594
0.0029536719 0.04754544 0.12323937 -0.09998894 0.06926896 -0.15292466 0.09307072 0.035076715
0.030198673 -0.043990724 -0.111655354 -0.121117786 -0.07886151 -0.01222199 0.09973262 -0.13839298
-0.19487736 0.080447696 -0.21540777 -0.15361382 0.056610897 -0.056900106 -0.17295872 -0.06885632
0.13244553 0.014418674 0.0290481 -0.109741546 0.119007215 0.05827224 0.08906074 0.057150107
-0.022012437 0.03923111 -0.26658025 0.052875325 0.09927529 0.012937314 -0.23280862 0.022494152
0.04010485 0.012736419 -0.0068581044 -0.09513284 0.0727761 -0.23194031 0.18731828 0.06977022
0.039941885 0.04604608 0.004438973 0.09139302 0.06716609 -0.07357678 -0.0056747003 -0.09884327
0.12099415 -0.08119182 -0.17079324 0.15908289 -0.18423446 0.050970767 -0.03902909 0.003101796
0.10139075 0.18469356 -0.12242942 -0.0091809165 -0.017099995 0.006457779 0.26062894 -0.075711936
0.029063959 -0.013832997 0.12026714 -0.08182853 0.092517644 -0.004037079 0.069819525 -0.22346668
-0.15659785 0.05942423 -0.06600476 -0.04691725 0.028353885 0.047837995 -0.20417818 -0.11294026
-0.07940368 -0.06723821 -0.18373947 -0.07425598 -0.017057773 -0.06694104 -0.15591614 0.10015549
-0.0451797 -0.03443762 0.08903267 0.21633683 0.06983835 -0.16945367 0.04983795 -0.083216
-0.09579213 0.008182029 -0.053604044 0.1705763 -0.15280867 0.011144434 -0.042092692 0.07999232
0.1581672 -0.21073566 -0.04546068 -0.01636678 0.05039252 0.08855042 0.061910357 -0.06339169
-0.018290723 -0.01518261 -0.01196579 -0.04293252 -0.022121519 -0.09385261 -0.02806895 0.11671961
0.05283176 0.06656966 -0.12958586 -0.01660587 0.028590167 -0.019484146 0.26443157 -0.06235644
0.102830805 -0.12696233 0.18550359 0.015137163 -0.04339106 -0.19787572 -0.30414194 0.088662304
-0.034688022 -0.11348192 -0.09749113 -0.20059177 0.08123655 -0.07400974 -0.17111206 -0.012948401
-0.023369288 0.06022703 -0.06340681 0.005190257 -0.066532865 0.042951804 0.0021620467 -0.14656228
-0.14187378 -0.14522178 -0.0044867136 -0.07346088 0.160342 0.132081 -0.04542211 -0.054535653
0.15717436 0.016744316 -0.098271325 -0.10517379 0.071761005 0.2499443 0.054017473 0.00034547877
00000000: c45c fdbc ae4f e5bb f893 75be 4f04 fd3d
00000010: d616 9a3d 94fd 683c 98b5 a03d 0430 723e
00000020: e33d 0b3d 1e2f 30bd 9709 503d 9cdf 59be
00000030: 6d70 843a 1206 efbd 3e0a ffbd ca20 bb3a
00000040: d454 3d3d aa25 fdbd dda5 1ebe 5d0e 42be
00000050: d52b 883d 6425 c83d 3640 41be 2b5a c4bc
00000060: dda2 ccbd a58e 453e 62f7 bcbd 583e f8bd
00000070: 3998 21be ccfc a4bb b1d5 02be 6fdf 5d3c
00000080: 9bc5 c93d ef9b 14bd e3eb 283d 0a22 b93c
00000090: af4d 6fbd 2b79 61bd 35d6 2a3e 0533 8c3d
000000a0: f1a4 89bb 31c5 843d 9b85 cbbd bfe1 933e
000000b0: bb0a 8f3d ba5e a83c bbb0 cfbd 19a2 2fbe
000000c0: 586e 37bd 440c 87bd b440 dabd a8e6 82be
000000d0: 1c79 083d 5f93 46be 66f8 aabc 3e65 953c
000000e0: f837 ccbd 1d21 2bbd 5afe aa3c 5cbd de3d
000000f0: 8c91 283e 6ca5 49be edf1 893c aec9 59be
00000100: 2453 863d f1fe 853d 72f8 ab3d 72dd 5fbe
00000110: 74fd 163d 4e3b 77bb 0506 0a3e e640 ac3c
00000120: 6844 733d f206 53bc 7b3b 71bc 5f17 773d
00000130: 135e 15be 2386 90bd 170e 503d 391a 063e
00000140: 6492 413b 02bf 423d ec64 fc3d 00c7 ccbd
00000150: e2dc 8d3d 4898 1cbe dd9b be3d 9aac 0f3d
00000160: 3563 f73c 9e2f 34bd 90ab e4bd 9a0c f8bd
00000170: 2582 a1bd be3e 48bc 9e40 cc3d e4b6 0dbe
00000180: ee8d 47be c3c1 a43d db93 5cbe f14c 1dbe
00000190: d4e0 673d 1610 69bd 171c 31be 8b04 8dbd
000001a0: cd9f 073e 4d3c 6c3c 48f6 ed3c 2dc0 e0bd
000001b0: 0eba f33d dfae 6e3d 7a65 b63d 3b16 6a3d
000001c0: 6d53 b4bc cdb0 203d 357d 88be cc93 583d
000001d0: d850 cb3d 07f7 533c 6265 6ebe a845 b83c
000001e0: fc44 243d 6aac 503c f3b9 e0bb 02d5 c2bd
000001f0: a30b 953d c381 6dbe 5dd0 3f3e b0e3 8e3d
00000200: 1a9a 233d d09a 3c3d ce74 913b 432c bb3d
00000210: 608e 893d 6caf 96bd d6f2 b9bb 576e cabd
00000220: c8cb f73d e647 a6bd 6ce4 2ebe a0e6 223e
00000230: f5a7 3cbe b9c6 503d f8dc 1fbd 8047 4b3b
00000240: f4a5 cf3d 4f20 3d3e 47bc fabd 8e6b 16bc
00000250: 4a15 8cbc c79b d33b 2871 853e dc0e 9bbd
00000260: 8a17 ee3c cba3 62bc 9e4e f63d b795 a7bd
00000270: e479 bd3d 7949 84bb 8afd 8e3d 73d4 64be
00000280: 305b 20be d266 733d 812d 87bd 4d2c 40bd
00000290: 6846 e83c c6f1 433d 1614 51be 394d e7bd
000002a0: 669e a2bd 30b4 89bd 3326 3cbe 8513 98bd
000002b0: bebc 8bbc 6218 89bd 7ba8 1fbe 521e cd3d
000002c0: 590e 39bd 760e 0dbd c356 b63d 6787 5d3e
000002d0: 6907 8f3d 4385 2dbe e122 4c3d 266d aabd
000002e0: aa2e c4bd eb0d 063c ea8f 5bbd 8eab 2e3e
000002f0: e079 1cbe 2597 363c 6369 2cbd 03d3 a33d
00000300: 95f6 213e 17cb 57be fa34 3abd a013 86bc
00000310: 6368 4e3d ec59 b53d b795 7d3d 81d3 81bd
00000320: 6dd6 95bc 7bc0 78bc 290c 44bc 03da 2fbd
00000330: 3038 b5bc cc35 c0bd dbf0 e5bc b10a ef3d
00000340: 1e66 583d ad55 883d 28b2 04be 0909 88bc
00000350: ed35 ea3c 379d 9fbc 9363 873e 7769 7fbd
00000360: f598 d23d 6a02 02be a7f4 3d3e dd01 783c
00000370: d3ba 31bd ef9f 4abe 7eb8 9bbe 9594 b53d
00000380: 0715 0ebd 3569 e8bd 6ea9 c7bd ee67 4dbe
00000390: 595f a63d 6b92 97bd 0038 2fbe 8825 54bc
000003a0: f370 bfbc 9eb0 763d 6edb 81bd 0813 aa3b
000003b0: 6242 88bd 3bee 2f3d 20b1 0d3b 6c14 16be
000003c0: 5c47 11be 05b5 14be 4805 93bb a872 96bd
000003d0: b130 243e 3e40 073e 890c 3abd c760 5fbd
000003e0: 51f2 203e 602b 893c 7a42 c9bd 5b65 d7bd
000003f0: 6ff7 923d 66f1 7f3e 6d41 5d3d 6021 b539

feature_layers.2.bias f4 [64]
-0.07958237 -0.0041893045 -0.06237186 0.08415772 0.042065553 -0.075364634 -0.05418359 0.026917191
0.014632062 -0.13669346 0.062177844 -0.110974886 -0.058782708 -0.08663258 -0.06813548 0.03923482
0.16172327 -0.052041363 -0.108784676 -0.10662629 0.020481464 0.07642846 -0.07226682 0.15011594
0.093998305 0.18490194 -0.0032176825 -0.020878978 -0.125083 0.114522085 0.10754173 0.13698508
-0.093414955 0.04172524 -0.010239724 -0.14476183 -0.0565738 0.006539661 -0.051228862 -0.059885897
-0.0031986595 0.106954165 0.07895729 -0.108378366 0.1307751 0.044165358 -0.06596461 -0.0598868
-0.010872347 -0.014599804 0.0018891526 -0.10459303 -0.10336941 -0.02493532 0.004542727 -0.01938224
0.07563542 0.004539184 0.17035812 -0.06462792 -0.048922956 -0.13186674 -0.15347609 -0.11629912
00000000: 15fc a2bd 6f46 89bb a379 7fbd e25a ac3d
00000010: ee4c 2c3d c658 9abd 9def 5dbd 7181 dc3c
00000020: 51bb 6f3c 5ff9 0bbe 32ae 7e3d cd46 e3bd
00000030: 23c6 70bd 6c6c b1bd 9d8a 8bbd b1b4 203d
00000040: c99a 253e 5329 55bd 80ca debd e25e dabd
00000050: bec8 a73c 8686 9c3d a000 94bd feb7 193e
00000060: 2f82 c03d ef56 3d3e c1df 52bb 640a abbc
00000070: c215 00be 8e8a ea3d d73e dc3d d145 0c3e
00000080: 5750 bfbd 16e8 2a3d 84c4 27bc 723c 14be
00000090: eeb9 67bd a74a d63b 5bd5 51bd ea4a 75bd
000000a0: 9aa0 51bb c90a db3d 5cb4 a13d 7af5 ddbd
000000b0: e8e9 053e bce6 343d 7418 87bd dc4b 75bd
000000c0: ee21 32bc 0434 6fbc 719d f73a df34 d6bd
000000d0: 57b3 d3bd 2845 ccbc 28db 943b 81c7 9ebc
000000e0: bee6 9a3d 6fbd 943b 5c72 2e3e a55b 84bd
000000f0: 7063 48bd 1308 07be d628 1dbe 3c2e eebd

feature_layers.4.weight f4 [32, 64]
0.01893527 0.01809022 0.049256455 0.03978026 -0.04282034 -0.09148434 0.11145384 -0.028465444
-0.026562225 -0.13513713 0.07725677 0.1034515 -0.053266943 0.096697815 0.0866035 0.038023043
-0.10698505 -0.077923566 0.010418172 0.061002187 -0.099140316 0.046406943 0.071798004 -0.057190944
-0.16544765 -0.14477566 0.09423917 -0.0119738905 -0.038196366 -0.12532233 -0.120463036 0.06257234
0.06493546 -0.02104964 0.095627554 -0.14842221 -0.035255082 0.025698058 -0.007902065 0.048296057
0.07331602 -0.020244036 -0.11291336 0.100481234 -0.048150957 -0.012667732 0.12515861 -0.072590895
0.07214084 -0.014339103 -0.11895023 -0.020173132 -0.114809856 0.07965116 0.06651738 0.022311937
-0.10958022 0.04773648 0.04648075 0.111437924 -0.03492481 0.05030322 0.054369103 -0.017213596
0.033362675 -0.025357973 -0.00781174 -0.04196115 0.034759093 0.0018410134 -0.04789459 -0.011151925
0.026361857 0.08698076 -0.01706958 0.07434382 0.12355561 0.06708201 0.067189395 -0.044386867
-0.100660205 -0.044668224 0.09010895 0.026049744 -0.11962823 -0.150546 -0.11058059 -0.10289107
-0.09605843 -0.09738653 0.0988052 -0.08000053 0.10923388 -0.040252216 -0.082342334 -0.08078407
-0.04599364 -0.08506548 -0.12171141 -0.0093528 -0.107191086 -0.089919716 -0.025310647 -0.086314745
-0.023168104 -0.09155056 -0.028983146 0.12891135 0.07690446 0.008801296 0.06846526 0.12590578
0.119277254 -0.07949254 0.034616593 -0.029651295 -0.09144054 0.13517644 0.13891701 0.004041541
0.07981539 0.026531495 0.09280181 0.055440377 0.11740304 0.038082685 0.057744592 0.071683004
-0.09343555 -0.18006189 0.0348665 0.07632841 0.067966685 0.0703663 -0.05401237 0.11165469
-0.05869197 -0.08183828 0.13629365 0.086915195 -0.12306924 -0.037605677 0.02513343 -0.050152082
-0.121957764 -0.035110317 0.106406674 -0.14435224 -0.030851811 -0.008045395 0.030053284 -0.13059407
-0.018851027 -0.10075623 0.087638415 0.018749211 -0.09448712 -0.04605345 0.053682074 -0.08926941
-0.043827545 0.19177714 0.018959627 0.00058622507 0.03758972 0.05271893 -0.040298067 0.047778368
0.068783 -0.17029572 -0.15932865 -0.023422332 -0.014318736 -0.026848529 -0.008692329 -0.11798252
-0.012621529 -0.008462409 -0.05108144 0.109366074 -0.06634722 0.08679951 -0.0942942 0.13578422
0.032765362 0.11560259 0.0014782622 -0.042229794 0.0028387962 -0.040999513 0.08681748 -0.069807895
-0.1908707 0.028497377 0.04760899 -0.058639478 -0.0154404305 0.003868689 -0.19627172 -0.13636035
-0.10421316 -0.19288819 -0.05268404 0.16593927 -0.103474244 0.043676276 -0.07092218 0.03641055
0.115280755 0.06779334 -0.20786543 0.21764365 0.17833233 0.06430223 -0.10657221 0.15191208
0.007046918 0.09055591 0.09444869 0.04675026 -0.036583144 -0.2203656 0.05823575 -0.1529526
-0.1337687 -0.026651483 -0.10709553 0.053289134 -0.19801132 -0.07660687 0.103773095 0.02154625
0.06097462 -0.09717038 -0.07688315 -0.08226065 0.06320332 -0.1254712 -0.022798201 0.06753207
-0.06988235 0.17166725 -0.06434245 0.048152994 0.08811866 -0.17211759 0.110062726 -0.06189339
-0.15774024 -0.0095040975 -0.13988435 -0.24711928 -0.09191856 -0.0020302853 -0.15993835 0.03554902
00000000: 241e 9b3c f131 943c 23c1 493d a0f0 223d
00000010: 6164 2fbd 245c bbbd e941 e43d 5d30 e9bc
00000020: 0699 d9bc 6361 0abe cc38 9e3d 61de d33d
00000030: 702e 5abd 8109 c63d 2d5d b13d 0dbe 1b3d
00000040: fa1a dbbd 6496 9fbd fbb0 2a3c 6edd 793d
00000050: 140a cbbd 3515 3e3d d50a 933d 0d41 6abd
00000060: 1c6b 29be 1240 14be 7700 c13d 232e 44bc
00000070: cb73 1cbd 7f54 00be 53b5 f6bd ed25 803d
00000080: e2fc 843d 4b70 acbc 61d8 c33d fefb 17be
00000090: a267 10bd bc84 d23c aa77 01bc 16d2 453d
000000a0: b626 963d d2d6 a5bc 1f3f e7bd 1bc9 cd3d
000000b0: f039 45bd 528c 4fbc 9429 003e 89aa 94bd
000000c0: 94be 933d 8fee 6abc 2e9c f3bd 2042 a5bc
000000d0: 6e21 ebbd 2620 a33d 443a 883d 86c7 b63c
000000e0: 986b e0bd 5487 433d 9962 3e3d 9139 e43d
000000f0: 510d 0fbd c00a 4e3d 23b2 5e3d 8703 8dbc
00000100: 4da7 083d 86bb cfbc a0f9 ffbb 74df 2bbd
00000110: 8d5f 0e3d 294e f13a 1e2d 44bd 90b6 36bc
00000120: d2f4 d73c f822 b23d 81d5 8bbc 9341 983d
00000130: b90a fd3d 4b62 893d 989a 893d 01cf 35bd
00000140: f026 cebd 07f6 36bd 0b8b b83d 4666 d53c
00000150: a5ff f4bd bb28 1abe 1478 e2bd 8eb8 d2bd
00000160: 48ba c4bd 9772 c7bd 615a ca3d 51d7 a3bd
00000170: 03b6 df3d 82df 24bd 19a3 a8bd 1e72 a5bd
00000180: d463 3cbd cf36 aebd d543 f9bd 7d3c 19bc
00000190: 0087 dbbd d427 b8bd 4658 cfbc c9c5 b0bd
000001a0: 09cb bdbc dc7e bbbd 106e edbc 5601 043e
000001b0: 1680 9d3d 5033 103c 8437 8c3d 72ed 003e
000001c0: a247 f43d fccc a2bd 21ca 0d3d 46e7 f2bc
000001d0: 2e45 bbbd b16b 0a3e 4340 0e3e e76e 843b
000001e0: 4076 a33d 9458 d93c e00e be3d 7315 633d
000001f0: 0171 f03d 97fc 1b3d 9885 6c3d 8ace 923d
00000200: 235b bfbd 2562 38be 2dd0 0e3d 1252 9c3d
00000210: 1e32 8b3d 351c 903d 133c 5dbd 37ab e43d
00000220: fe66 70bd d49a a7bd 9090 0b3e 9800 b23d
00000230: ba0b fcbd 6908 1abd 9fe4 cd3c 456c 4dbd
00000240: fec4 f9bd d6cf 0fbd beeb d93d 13d1 13be
00000250: f0bc fcbc d5d0 03bc 4e32 f63c 74ba 05be
00000260: 786d 9abc 4859 cebd c57b b33d f297 993c
00000270: 7782 c1bd 8ba2 3cbd bce1 5b3d e1d2 b6bd
00000280: 8384 33bd 3a61 443e 3851 9b3c e6ac 193a
00000290: aef7 193d ceef 573d 960f 25bd 40b3 433d
000002a0: 1ade 8c3d 0062 2ebe 0d27 23be 31e0 bfbc
000002b0: 2299 6abc 72f1 dbbc 456a 0ebc d2a0 f1bd
000002c0: 88ca 4ebc eaa5 0abc c63a 51bd 52fb df3d
000002d0: 0de1 87bd f1c3 b13d 511d c1bd 050b 0b3e
000002e0: f934 063d 0dc1 ec3d 40c2 c13a 26f9 2cbd
000002f0: 190b 3a3b 1bef 27bd 5dcd b13d 71f7 8ebd
00000300: 9c73 43be 5573 e93c a501 433d f32f 70bd
00000310: dcf9 7cbc d589 7d3b 74fb 48be 0ca2 0bbe
00000320: b66d d5bd 7b84 45be 38cb 57bd fceb 293e
00000330: 4eea d3bd e5e5 323d a63f 91bd 3b23 153d
00000340: 5118 ec3d 3cd7 8a3d adda 54be fadd 5e3e
00000350: c09c 363e e3b0 833d 8842 dabd d78e 1b3e
00000360: d5e9 e63b 6075 b93d 516e c13d 337d 3f3d
00000370: 35d8 15bd 85a7 61be 9c88 6e3d 9b9f 1cbe
00000380: a9fa 08be 3654 dabc e754 dbbd b545 5a3d
00000390: 7bc3 4abe 10e4 9cbd fd86 d43d c381 b03c
000003a0: 86c0 793d 4401 c7bd ea74 9dbd 4678 a8bd
000003b0: be70 813d 867b 00be 4bc3 babc 414e 8a3d
000003c0: 7a1e 8fbd 8ac9 2f3e f9c5 83bd 133c 453d
000003d0: 8e77 b43d 983f 30be 9168 e13d ec83 7dbd
000003e0: a886 21be 13b7 1bbc d83d 0fbe d60c 7dbe
000003f0: cc3f bcbd 890e 05bb e1c6 23be d99b 113d

feature_layers.4.bias f4 [32]
-0.017832581 -0.103195146 -0.054986168 -0.023707977 -0.04877378 -0.08682444 0.3152566 0.14589779
-0.11277506 0.2472144 -0.07285604 -0.069680065 0.118281335 0.3729362 0.07780098 -0.035421193
0.081234954 0.029342435 0.17786166 -0.10322792 0.012592393 -0.07322397 -0.026885375 -0.054427963
-0.07434235 -0.053088903 0.061394863 0.013151199 -0.048062425 0.17287023 0.23370254 0.17100541
00000000: a215 92bc fa57 d3bd 2d39 61bd 3b37 c2bc
00000010: 04c7 47bd 03d1 b1bd 5069 a13e 3b66 153e
00000020: 9cf6 e6bd c625 7d3e 8c35 95bd 6cb4 8ebd
00000030: 7c3d f23d 7ef1 be3e 1f56 9f3d d015 11bd
00000040: 835e a63d 8c5f f03c 5e21 363e 2969 d3bd
00000050: 5350 4e3c 73f6 95bd b83e dcbc dbef 5ebd
00000060: cd40 98bd c073 59bd 2e79 7b3d 2078 573c
00000070: 1bdd 44bd e504 313e b84f 6f3e 0b1c 2f3e

value_stream.0.weight f4 [1, 32]
0.04737498 -0.07919928 -0.055613272 0.12576716 -0.24062611 0.14883222 0.26892003 0.19193453
0.06283428 0.31329858 -0.03799797 -0.03672431 -0.36598727 0.25884137 -0.031879116 0.13050473
0.10227101 -0.122142814 0.1495806 -0.08063226 0.21243808 0.06703969 0.017366793 -0.045394544
-0.21436742 0.1853571 0.24966772 0.280527 -0.15803312 0.3032048 0.40785316 0.082762666
00000000: 440c 423d 3b33 a2bd beca 63bd 1bc9 003e
00000010: b166 76be 7967 183e e3af 893e 7c8a 443e
00000020: 42af 803d ac68 a03e c2a3 1bbd 3b6c 16bd
00000030: af62 bbbe db86 843e ad93 02bd 08a3 053e
00000040: 7773 d13d 0326 fabd a82b 193e 8722 a5bd
00000050: 5e89 593e 1b4c 893d ce44 8e3c a1ef 39bd
00000060: 2283 5bbe 40ce 3d3e e5a8 7f3e 3ca1 8f3e
00000070: 6fd3 21be a93d 9b3e 21d2 d03e 797f a93d

advantage_stream.0.weight f4 [4, 32]
0.020842258 -0.12854813 -0.121800244 -0.008358448 0.1210098 -0.15530625 -0.03795091 0.23537931
-0.24890563 -0.20891002 0.12431956 -0.026656473 -0.19822174 0.10055378 -0.31455764 0.22783811
0.1084483 -0.03481569 0.11197966 -0.30341703 -0.05787931 0.16181669 -0.051343586 0.17385638
-0.19570939 0.028939076 0.11463115 0.0864924 -0.0010930577 -0.06017012 0.20555896 0.07085978
-0.14011364 -0.05351381 0.05163406 0.123527445 0.10083237 0.27161774 -0.15032472 0.035034567
0.20503606 -0.043009304 -0.01939351 -0.18084998 0.03980021 0.016168179 -0.10577514 -0.0822252
0.14821455 -0.05699446 0.17360495 0.29992956 0.28430024 0.083197 0.22174706 0.010640897
-0.0967695 -0.054022156 0.14723286 -0.043105673 -0.023942985 -0.053336784 -0.016709838 -0.22017388
0.034283802 -0.012175629 -0.091372944 -0.2150027 -0.16523412 0.007355511 0.0034650776 -0.0051188874
-0.2676598 0.0031279319 -0.14000437 0.22416213 -0.24647354 0.117131315 -0.26047355 -0.2644768
-0.15681763 -0.09745173 -0.20708452 -0.1523853 0.1997593 0.047800615 -0.16375591 0.075330466
-0.24794503 -0.15505219 -0.11622659 -0.04773907 0.07154392 0.22014147 0.1440943 -0.0660544
0.1349466 -0.010531558 0.06293793 -0.16049297 0.1417992 -0.08487439 0.14022912 -0.16078523
0.18225423 -0.08179579 -0.08307458 -0.28872633 -0.1561119 0.055604782 0.08375341 -0.14593051
-0.2747951 0.16699618 0.071707115 0.0664831 0.24559703 -0.1190451 0.24471731 -0.17142025
-0.25470296 0.23921362 0.2606078 0.14227143 -0.08220372 0.010154067 0.070079684 0.077620976
00000000: 62bd aa3c 1fa2 03be 6872 f9bd dff1 08bc
00000010: fcd3 f73d 9a08 1fbe 6a72 1bbd 4607 713e
00000020: 1ee1 7ebe 82ec 55be 419b fe3d ad5e dabc
00000030: a4fa 4abe 24ef cd3d b30d a1be 654e 693e
00000040: 241a de3d e69a 0ebd 9855 e53d 7a59 9bbe
00000050: db12 6dbd 46b3 253e a74d 52bd 6807 323e
00000060: 0b68 48be a411 ed3c bdc3 ea3d ed22 b13d
00000070: ee44 8fba f274 76bd 0c7e 523e ef1e 913d
00000080: f379 0fbe 4c31 5bbd 3c7e 533d f5fb fc3d
00000090: 3481 ce3d 7b11 8b3e b9ee 19be 6880 0f3d
000000a0: f9f4 513e 862a 30bd 23df 9ebc bd30 39be
000000b0: 8c05 233d 2173 843c a3a0 d8bd b065 a8bd
000000c0: 8ec5 173e 0673 69bd 7fc5 313e 5e90 993e
000000d0: cd8f 913e 3063 aa3d a911 633e 2857 2e3c
000000e0: 162f c6bd 5646 5dbd 36c4 163e 938f 30bd
000000f0: 1424 c4bc ac77 5abd 12e3 88bc 4375 61be
00000100: 2c6d 0c3d 4a7c 47bc bd21 bbbd ab29 5cbe
00000110: 2233 29be 8006 f13b 5b16 633b 57bc a7bb
00000120: b50a 89be fdfd 4c3b 4e5d 0fbe c28a 653e
00000130: 8f63 7cbe 8be2 ef3d ca5c 85be 8169 87be
00000140: cd94 20be c694 c7bd f70d 54be e40a 1cbe
00000150: b48d 4c3e 94ca 433d a1af 27be dc46 9a3d
00000160: 4de5 7dbe 00c6 1ebe 3508 eebd 0b8a 43bd
00000170: 9e85 923d c46c 613e 758d 133e 8747 87bd
00000180: 712f 0a3e 8e8c 2cbc 9ae5 803d 4558 24be
00000190: cf33 113e a0d2 adbd 3998 0f3e e2a4 24be
000001a0: daa0 3a3e 8d84 a7bd 0123 aabd f0d3 93be
000001b0: ccdb 1fbe d7c1 633d e886 ab3d cf6e 15be
000001c0: f1b1 8cbe 0c01 2b3e 2edb 923d 4b28 883d
000001d0: ca7d 7b3e ebcd f3bd 2d97 7a3e ca88 2fbe
000001e0: 6d68 82be 6af4 743e 636e 853e 9aaf 113e
000001f0: 6d5a a8bd 3e5d 263c f085 8f3d bff7 9e3d

advantage_stream.0.bias f4 [4]
0.028376823 -0.0041832114 -0.1392339 -0.15844518
00000000: 8376 e83c 5213 89bb 5593 0ebe 743f 22be
