p2_continuous-control/weights/checkpoint_actor.pth (torch_old, 87490 bytes, 10 tensors)

bn1d.weight f4 [33]
00000000: d984 613f f02c 7b3f 01d2 0d3f 1f93 df3d
00000010: 1239 033e 5d43 053e 97a6 cb3d c303 fd3e
00000020: abc4 d13e 62c1 e13e 6d3d bc3e a3d9 f43e
00000030: 1576 ccbe 53a9 2c3f 070e 233f 4f87 7d3f
00000040: 3d98 453d ccb4 d93d 5309 9eba 08b0 de3c
00000050: 6021 003f 216c 4e3f 1d27 c23e 31a9 803f
00000060: 25d2 b13e 7fa9 453f e9b4 b83f 9021 143d
00000070: 403c 4a3f 9030 bf3e 1236 9c3e 9497 6e3f
00000080: bc9e 643f
0.88093334 0.98115444 0.55398566 0.10916733 0.1281474 0.13013978 0.09943884 0.49416932
0.40970358 0.44092852 0.36765614 0.47822294 -0.3993384 0.6744587 0.6369328 0.9903459
0.04824089 0.106301874 -0.0012057222 0.027183548 0.50050926 0.8063374 0.37920466 1.0051633
0.3473064 0.77211756 1.4430209 0.03616482 0.78998184 0.37341738 0.30510002 0.9320004
0.8930471

bn1d.bias f4 [33]
00000000: 982c 333e da0b 5abd a1b6 04be 3309 c63d
00000010: 328e 8fbe ae83 063e c6c1 313e ec78 4bbd
00000020: 4b83 b83d ecee cc3d 63d5 3b3e 4e03 a7bd
00000030: e006 0c3d 1a7a ef3d 1103 703d 15bf a13d
00000040: a682 673e 2af1 463e fd96 86be 5989 18be
00000050: 26b4 c93d 1461 e73d 8798 0b3e a46b d33d
00000060: 7018 f03d 8fca bb3c ed40 f53d 211d 3e3e
00000070: bb47 8ebd 776a 0e3e 26be ec3d 160e f83d
00000080: 6db7 543c
0.1749748 -0.05323396 -0.12960292 0.09669723 -0.28038174 0.1313617 0.17359075 -0.049675867
0.09009417 0.10006508 0.1834312 -0.08154927 0.034186244 0.11693211 0.058596674 0.07897774
0.22608432 0.19427934 -0.2628707 -0.14896144 0.09848814 0.11297813 0.13632403 0.10323265
0.11723411 0.022923736 0.11975274 0.185658 -0.06947275 0.139078 0.115597054 0.12112062
0.012983185

bn1d.running_mean f4 [33]
00000000: 1b20 873f 9a88 14c0 b625 6fbc 88cd 503f
00000010: ba60 ff3d 9404 ddbc 2354 d6bb 3ae9 b33c
00000020: 35c0 8bbc 67ce f43b c8f4 d3bb 2ec0 bebc
00000030: fa14 d4bc 8bac 933f 39f9 06c0 5a73 da3e
00000040: 0212 463d 6d89 a0bc 6fab 3b3d 0d2e 7b3e
00000050: 87db 04bd 109d 003b 8b95 c33c f3cc ce3c
00000060: a577 f03d a3ec 96bb 6421 073e fcff 7fbf
00000070: 6650 80bd 0000 0000 fcff 7f3f 0000 0000
00000080: d616 31bc
1.0556673 -2.3208375 -0.014596393 0.81563616 0.12469621 -0.026979722 -0.0065407916 0.021961797
-0.017059425 0.007470894 -0.006468389 -0.023284998 -0.025888909 1.1537031 -2.1089613 0.4266613
0.048357017 -0.01959678 0.04581779 0.24529286 -0.03243592 0.0019624867 0.023875019 0.025244212
0.117415704 -0.004605846 0.13196331 -0.99999976 -0.06265335 0.0 0.99999976 0.0
-0.010808667

bn1d.running_var f4 [33]
00000000: 8402 7340 6d59 063f 8c38 a840 0f6f be3d
00000010: 28ab 843d 02bc 033d 48df 033e b469 9e3e
00000020: 1a3d 7b3d a67a a23d 29b0 e53f b85f 733f
00000030: 946d 0f40 640c 8e41 873d 5c3f 273c b941
00000040: 08ab ab3d d725 6b3e 7ccc ae3d 1985 093f
00000050: f545 a53f e455 fd3e e21b e43e c304 d140
00000060: f6ca d73f d558 0641 9b55 ff41 0400 0000
00000070: c33f 0042 0400 0000 0400 0000 0400 0000
00000080: 3b16 ae3e
3.7970285 0.524802 5.2569027 0.092985265 0.06477958 0.03216172 0.12878144 0.3094002
0.061337568 0.079335496 1.7944385 0.9506793 2.241063 17.75605 0.86031383 23.154371
0.08382231 0.22963654 0.08535096 0.53718716 1.2911974 0.49479592 0.44552523 6.5318313
1.6858814 8.3966875 31.9168 6e-45 32.062267 6e-45 6e-45 6e-45
0.34001336

fc1.weight f4 [128, 33]
00000000: b815 4ebe 58ac abbb 4e4a 74ba 27f3 133e
00000010: c8e3 63bc e409 e1bd 3c76 e83b c562 e1bd
00000020: 0daf 9b3c 11ad 18bd 77e2 093d e6ba b5bc
00000030: d978 03bc 047b d8bd bc87 96bd 999b d63d
00000040: 1f3e 19bc 0066 0abd 2da7 683d d57c 5a3d
00000050: a14a b3bd 81df b73c 73fb ebbc b871 e6bc
00000060: 75ea 4fbe ff8e 0a3e 9279 a1be 3be2 1bbe
00000070: 3635 88bd 94ff 71be ecc6 0b3e dc3d 1f3e
00000080: 97a7 87be 10c9 03be 3384 00be c3b0 1e3d
00000090: 8f80 8cba 6fbe b73d 1daa b1bc 9a00 73bd
000000a0: 3371 c53d f8a2 de3d 7c86 18bd df8c bcbd
000000b0: 3fb0 94bd 6b75 0a3e d8fb 2bbe 0f87 b8bb
000000c0: e10a 95bd 6363 ecbd c5e8 7abd 19be 9d3d
000000d0: 736d db3d 09e0 453c fd29 ddbd 2619 6d3d
000000e0: cbce 87bd 0add c1be cba7 88bd 8864 95be
000000f0: 74ed 31be 207e 883e e98e 39be fd2d 083e
00000100: b452 a23d 77f8 b13e 5974 b33d ab32 d03d
00000110: fbe9 1abd 3a96 183c de30 823d b13d 6f3c
00000120: f7ec cbbc 0344 3c3d 78fb c0bd 3567 273e
00000130: ed77 8b3d c1f5 a63d 9f1a 2abb 3822 d23d
00000140: 7cc4 a1be 2506 0ebe 0510 6abd eee2 23bb
00000150: 8e87 a23d edc0 3f3b 6e89 f03d 13ff 0b3d
00000160: 5746 05be f8c3 c8bc 1d8c 50be 1432 e2bd
00000170: 3238 a9bd e00f 2bbd f862 81be aac7 803b
00000180: 10e1 9fbd c2a6 08bd 4518 a8bc 3b76 f33d
00000190: d806 f03c 0ba9 02be 2aa9 27bd 3a85 0d3e
000001a0: 0ab7 37bd 1584 23be eb17 1e3e d54a bb3d
000001b0: 20f6 75be d63e 8abd 51d6 183e 7dc5 4e3e
000001c0: d4d0 98bc 977b 4d3e 29c1 68bd b378 9b3d
000001d0: d905 d9bc df38 7cbd 1584 a33d c05c 3f3d
000001e0: 9498 c33c 4ade 03bd e7fd 993d 2053 613e
000001f0: 235d 8ebd 4835 a2be 7508 33be 68c1 573e
00000200: cd84 78be ef71 aa3c c8ba 2c3e aa01 023e
00000210: c239 493d 6199 27bc da9d b33e 842f 7bbd
00000220: 69d9 873d cfae 10bd ec53 5dbd e830 813c
00000230: 3480 603e a395 e83d 8679 06be 29d9 ecbd
00000240: d1ea 4bbb 7741 d93d 0d39 323c bfbc 29be
00000250: 5433 22bd 443c 453c 38ec 753d 1fce a2bd
00000260: e6c7 64be c441 de3c 677c 933d 6d76 e7bd
00000270: 6122 49be ae3a 943d 470f 783e 8ed8 0bbe
00000280: 48ab f43d 3bdf 82be efa9 133d f413 70bc
00000290: cc4b 03bf b1ae ba3d 54eb bcbe c3b3 6bbc
000002a0: febb 173e 2fd8 983d f342 4fbc eed5 ec3c
000002b0: 1d05 4cbe 35e8 903c 76a4 4b3d bdf1 e43c
000002c0: 6b00 f33d e61b f63d d6ea 393e 1e77 113e
000002d0: 465d 48be 01eb a6bd 033c c23a f478 813d
000002e0: 879a 4abc 82a0 96be 2cf5 8dbd 3bc3 68bd
000002f0: bfab 913c f8ee d8bd be72 81be e7ab 7dbd
00000300: 64bd 0bbe 5c49 d43d 2f0c 1dbe 38f7 883d
00000310: a2e6 b63d 8577 15be 02c7 a23e 3b41 f6bd
00000320: 4de5 2f3e 7b2f d33d 0264 5ebd 20fc 053d
00000330: 0679 813d 80a8 8dbd bb9e a0bc 0b0f 743a
00000340: 214f a23d 5b89 47be 305a cf3d a13c 96be
00000350: f112 a1be d446 10be 4464 773b cf3a 7dbc
00000360: 8391 c6bb ebc7 93bd d721 c83c 375b 853c
00000370: 8948 f33d 2203 0abe 9f76 1bbe 85d9 55bd
00000380: 644d 213d 936c dfbc 6b29 a3be a8e1 12bd
00000390: 7b4d e2bc 6c81 253d 1062 b9bd 3296 f73c
000003a0: f1cf 0e3e 6696 bbbd 5a27 023e c81b d5bd
000003b0: 7468 df3d 8fac c13d 3b8c b23c 892d 0fbc
000003c0: 1379 bfbc 0f4a abbd 3da9 c43d 6778 083e
000003d0: beeb 4cbd 7aa1 a33e 3d16 6f3d 468f c1bd
000003e0: f414 16bd c17b a7bd 2f0c dc3d c2c4 a4bd
000003f0: 1265 75bd 468f e63c 67ed 043e 4059 793e
-0.20125473 -0.005239051 -0.00093189336 0.14448224 -0.013909288 -0.109882146 0.0070941728 -0.11005167
0.01900437 -0.037274424 0.03366324 -0.022183847 -0.008024418 -0.10570338 -0.07350108 0.10478897
-0.00935319 -0.03378868 0.056800056 0.053341705 -0.08754469 0.022445442 -0.028806424 -0.028130397
-0.20304282 0.13531111 -0.31538063 -0.15223019 -0.06650774 -0.23632652 0.13650101 0.15550941
-0.26495048 -0.12869668 -0.1255043 0.03874279 -0.0010719466 0.08971869 -0.021687562 -0.059326746
0.09640732 0.108709276 -0.03723763 -0.092065565 -0.07260179 0.13521354 -0.1679529 -0.0056313346
-0.072774656 -0.11542394 -0.061257143 0.07702274 0.10714235 0.01207734 -0.10799024 0.05788531
-0.066312395 -0.37863952 -0.06672629 -0.29178262 -0.17375737 0.26658726 -0.18120922 0.13298793
0.079259306 0.34759876 0.08762426 0.10165914 -0.037820797 0.009313161 0.06356977 0.014602111
-0.024893267 0.0459633 -0.09422964 0.16347964 0.068099834 0.081523426 -0.0025955809 0.10260433
-0.31595218 -0.13869531 -0.057144184 -0.0025007087 0.07936011 0.002925928 0.11744963 0.034178805
-0.13015114 -0.024507508 -0.20365949 -0.11044708 -0.082626715 -0.041763186 -0.2527082 0.003930052
-0.07806599 -0.033362158 -0.020519385 0.11887785 0.029300138 -0.12759797 -0.04093281 0.13820353
-0.044852294 -0.15968354 0.15438811 0.091451325 -0.2401967 -0.06750266 0.14925505 0.20192523
-0.018654265 0.20066677 -0.056824837 0.07591381 -0.026492046 -0.061577674 0.07984177 0.046719313
0.023876466 -0.032194413 0.07519131 0.22004366 -0.06951358 -0.31681275 -0.17483695 0.21069872
-0.2426941 0.02080628 0.16868126 0.12695947 0.049127348 -0.0102294395 0.3508137 -0.06132461
0.066332646 -0.03532296 -0.054035112 0.01577039 0.21923906 0.11356666 -0.13132295 -0.115648575
-0.0031115303 0.106081896 0.01087786 -0.16575907 -0.03959973 0.012038294 0.06003973 -0.07949471
-0.2234188 0.027130969 0.07201462 -0.11301885 -0.19642021 0.07237755 0.24224578 -0.13656828
0.11946732 -0.25560936 0.036050733 -0.014653195 -0.5128753 0.09115351 -0.3689829 -0.01438612
0.14817807 0.07463109 -0.012650239 0.028910603 -0.19923826 0.01768885 0.04971739 0.027947301
0.11865314 0.1201704 0.18155989 0.14205596 -0.19566831 -0.08150292 0.001481891 0.06321898
-0.012365944 -0.29419333 -0.069315284 -0.05682681 0.01778209 -0.10592455 -0.25282854 -0.061931517
-0.13646466 0.10365555 -0.15336679 0.06687778 0.089307085 -0.14596374 0.31792456 -0.120241605
0.17177315 0.103117906 -0.054294594 0.03271115 0.063219115 -0.069169044 -0.019606939 0.0009310103
0.07925249 -0.1948599 0.10124624 -0.2934313 -0.31459764 -0.14089519 0.0037748972 -0.015455916
-0.006059827 -0.07215866 0.024430199 0.016278846 0.11879069 -0.13477758 -0.15181969 -0.052209396
0.039380446 -0.027273452 -0.31867537 -0.035859734 -0.027624836 0.04040663 -0.09051907 0.030222986
0.13946511 -0.091595456 0.12710324 -0.104056895 0.10908595 0.09456741 0.021795383 -0.008738884
-0.023373162 -0.08363735 0.09602592 0.1332718 -0.05002951 0.31959134 0.058370817 -0.09451155
-0.036641076 -0.08177901 0.10744511 -0.08045341 -0.05991084 0.02814449 0.12981187 0.24350452

fc1.bias f4 [128]
00000000: 2f3b 8c3d 2dab 0d3e f48c 663d 5d39 0dbd
00000010: 70aa 1abe 4850 313e 9c94 783d 530e bf3c
00000020: 1470 493d 54bd a73b 02b0 913d 8dc2 08bd
00000030: f6e5 cb3d ed58 57bc 8a80 013e 8831 1e3d
00000040: 9e56 723e 95df 74be f3f1 063d b440 06be
00000050: 2563 34be 27a7 1e3e 4543 39bd 8bf4 e1bc
00000060: 832f 1d3e f445 c2bd 838a df3d 1693 613e
00000070: 798c 473d 4d00 503e 15d8 453e ba45 fdbd
00000080: f50f ac3c 6e7b 6a3e 3f8c b13d 1b45 0abc
00000090: 16b1 aa3b f8e1 1e3d dd2c 823d cfe3 24bc
000000a0: 764d 183e 30a1 5a3d a498 af3c fcf9 033d
000000b0: 84fa 47be 7441 88bd ed92 093d 41b2 ac3d
000000c0: 5359 2a3e 15ea 8b3c f555 efbb 2271 073e
000000d0: 4bea 1dbe cd1c 75bc 4b70 f53d 0fb5 f2bd
000000e0: e794 c9bd 9967 58bc e202 403e c83a 933d
000000f0: 6478 173e abc3 a33d 444b 723d ada1 4a3e
00000100: 1812 b0bd b8ec af3b 641e 0c3e 56f7 3a3d
00000110: 1c1a 593e e9d1 983e 2a34 2a3b aafc 773d
00000120: 8c90 8cbc 83cc 663e ee06 853d 1148 ecbd
00000130: 99e7 1abe ef6a 763e fab8 a63d 9f77 a2be
00000140: c3d6 933e fc5c ecbb 93a1 0dbe eb8b cc3d
00000150: 6d65 3dbd 52bb 9b3d 6e4f d33d 17c4 203d
00000160: fef2 293c c369 113e 6e4b cebd 9592 ce3d
00000170: 8286 e2bb bcfb 233e a264 ea3c 60b8 e0bc
00000180: 56d7 5c3d 602a 563e a3c3 023e 0a46 3cbe
00000190: af13 043e cda9 b4bd 911e d33c 3518 debc
000001a0: 13f4 e43d 3d65 233e 12bd d33d 9b23 4c3e
000001b0: ad57 323c 9b06 053e 6713 203e b398 d33d
000001c0: 830c 82bd 8eb0 2ebe 2e39 a63d d3a4 883e
000001d0: 7cc0 793d 5ada b7bd aa55 7dbd 2269 c4ba
000001e0: 8941 5a3e c85f a53d 5b73 8ebd f6af 533e
000001f0: 1ba1 483d 8f46 643e b771 bfbd 8589 0b3e
0.06847226 0.1383483 0.056286767 -0.034478534 -0.15104079 0.17315781 0.0606886 0.02332226
0.04917915 0.005119005 0.07113649 -0.033388663 0.09955971 -0.01314376 0.1264669 0.038621455
0.23665854 -0.23913415 0.032945585 -0.1311062 -0.17615946 0.15493451 -0.04523017 -0.027582427
0.15350156 -0.09485999 0.10915091 0.22028765 0.04871795 0.20312615 0.1932071 -0.12366815
0.021003703 0.22898647 0.08669328 -0.008439328 0.0052090986 0.03878972 0.06356213 -0.010064079
0.14873299 0.053376377 0.02143509 0.032220826 -0.19529158 -0.06653109 0.033587385 0.08432437
0.16635637 0.017079392 -0.007303948 0.1322675 -0.15421407 -0.01496048 0.11984309 -0.118509404
-0.09842854 -0.013208293 0.187511 0.07188946 0.14792019 0.07996305 0.05915381 0.19788237
-0.08597201 0.0053687952 0.13683468 0.045646034 0.21201366 0.2984765 0.0025971034 0.060543694
-0.01715877 0.22538953 0.06495462 -0.11537183 -0.1512741 0.2406423 0.0814075 -0.3173189
0.28874788 -0.007213233 -0.13831167 0.09987625 -0.046239305 0.07604088 0.103178844 0.039249506
0.010372875 0.14200501 -0.10072981 0.10086552 -0.0069130072 0.16013998 0.028612439 -0.027431667
0.053916298 0.20914602 0.12769942 -0.18386093 0.12898134 -0.088214494 0.025771411 -0.027111152
0.11179366 0.15956588 0.10338797 0.19935457 0.010885161 0.12990801 0.15632401 0.103318594
-0.06350043 -0.17059538 0.08116375 0.2668825 0.060974583 -0.08977194 -0.061849274 -0.0014984945
0.21314062 0.080749094 -0.06955596 0.20672593 0.048981767 0.22292541 -0.09347861 0.13626678

fc2.weight f4 [128, 128]
00000000: dd7a fe3d 9feb 1d3e b4c5 383e 2a23 2abd
00000010: 6fcf f53e 6f8d 793d 439c 3b3e b8b6 01be
00000020: 1c89 8b3d f948 ff3d 008c 0ebe 6e24 ba3d
00000030: 08f2 05be 7249 c43b e47e 193d 35f2 76be
00000040: 25b0 b83d 3421 163e 56e2 d83d c697 36be
00000050: 1c77 82be 3105 043d 14d2 443e 77d7 f8bd
00000060: ffb1 6bbc 8bcd 08be 755b bd3d 236d 0a3d
00000070: 2b26 fd3d 3c32 a33d 4d82 33bb 71ae 6dbe
00000080: b6c1 65bd 90e4 843d 0e5f fbbc 24ba 393c
00000090: 51d3 6b3e afa3 c33d afa2 0d3e 4dcc ef3d
000000a0: 17f1 f5bd a174 c23d 05ea d63d a88c 9c3d
000000b0: 6a5a 333e 2d64 0a3e 69ff 9c3d fbbc 1a3e
000000c0: 84ab 8c3d 134e b7bc 76d7 513e bd04 f73d
000000d0: 245e 04bd 5e01 fe3d fcfd a0be 6c3a d5bd
000000e0: d695 dd3e 0b38 9f3d 58e5 733d 43ed 19be
000000f0: 91dd 6c3d a00e c23d f98d d43d 20ec 3ebe
00000100: ba98 933d 9141 cfbc 0fd6 493e 10bf a8be
00000110: 6667 bb3d 5a2d de3d 8f1b 543c 81e8 4c3e
00000120: 8d7f f53c b389 abbd b626 16be 3ba0 0d3e
00000130: 457d 1b3e 8a78 ce3d 8b2f 273d 1776 60bd
00000140: 6499 693e 72ff a83d 2f72 dc3e 4137 45bd
00000150: 2f4d 803c e36d 0dbd 9e60 2ebe f70a 3d3e
00000160: 0700 373e c663 d1bc 6c4e e0bc 08d6 6b3e
00000170: dd23 7cbe a85f d43d 96e9 773d 7486 07bd
00000180: af82 2abe e878 8a3d 07ca 693c 2e46 973e
00000190: 18fa 113e 461b 2a3e 80f0 e0bb d713 9cbc
000001a0: 42b3 00bd e317 56be a7e1 dfbc 08d6 6ebe
000001b0: f670 313e 234e b93d afc9 f3bc 6ce8 483e
000001c0: c37c e93d cf31 723e bb98 b03d e768 ccbd
000001d0: 83f0 23bd f086 66be b571 503d aeef 813b
000001e0: 7b13 6d3d cd0f c5be 4203 293e 7a5e 8c3d
000001f0: ec0e a1be 8ff8 b03c 5538 673e 4657 d43d
00000200: d6bf a4bc a38a ac3d aee0 1a3e 5556 08be
00000210: a098 fd3e d72c 97bd 0634 783d 5eeb 81be
00000220: 7172 9a3e d436 143e 498b 58bd 5a1b 543d
00000230: 79df f7bd 8e80 86bd 77d5 2a3d 79dd f0bc
00000240: 7828 1b3e c105 8fbd 49c5 663e 87e1 90be
00000250: f795 4a3e 8b33 e03d f813 c23c 4965 003c
00000260: fe35 f93d 14aa 99bc b3f5 da3d f774 e53d
00000270: 2ff8 633d d8b7 5bbe bfbb 31bd 4659 04be
00000280: c428 91be 6a6c a8bd 028f 78be 8429 89bd
00000290: c2bf 99bd 74c6 833d 44ba 6dbe 7cce c3be
000002a0: b625 a53e 3f6f 6e3e b8a0 8a3c d431 e33e
000002b0: d8c4 aabd f51e 5e3e e1d3 e6bc 824e 8bbe
000002c0: e4bd 7d3c e6a7 8f3d 0081 5c3e 2f1f 03bd
000002d0: 3d24 20be 684d 7b3e 5df8 2cbe 70c9 193d
000002e0: e1eb c33e d225 643e 1462 813e 8b61 1fbe
000002f0: 4eb6 e8bd e576 3bbd 0fc7 143e 8681 f23d
00000300: 32e2 e0bd 1dd6 84be 4c6a d63d 35bb 1ebe
00000310: ac5a 70bd 224a 0b3e 2c68 803e f5ee 99bd
00000320: 6079 063e cfa3 f83d 69f3 3ebb 6561 b03d
00000330: 0a3b 653e c7df a53d de91 ddbb 8673 2b3e
00000340: 2ca3 5ebb 13f2 823e a095 343e 9e52 63be
00000350: 960a 8e3e 7ec3 b2bd e0da a9be b68f 2d3e
00000360: 60b6 efbd 1054 843d 874d 1b3e bfff 283e
00000370: 9eca 1dbe e85a bdbe 84ae e2bd bac3 cebc
00000380: 8f57 8ebd da53 cc3c 6505 4bbe a979 a03e
00000390: 0b02 afbe 3ad3 863e deed 8fbe c76f dd3d
000003a0: 3fd4 7e3e 5e7d 0cbc 93c2 8dbe 9c89 8fbe
000003b0: 7584 823d fc48 703e 6d7d cbbe 462a 01be
000003c0: 78cc 183c 955b e03e 78bd b1be a081 52be
000003d0: e081 b43c 7041 18bd 312e 84bc d3c6 e8bd
000003e0: 17c2 023d 7f36 5ebe 3dde ac3d cb06 4b3e
000003f0: 6a94 7abc d795 4e3d 2068 8e3e b6fc 7e3c
0.12425778 0.15421914 0.18044168 -0.04153744 0.48009822 0.060925897 0.18321328 -0.12667358
0.06813261 0.1246509 -0.13920593 0.0908898 -0.13080609 0.0059902007 0.037474528 -0.24115832
0.09017972 0.14661103 0.10590045 -0.17831334 -0.25481498 0.032231513 0.19220763 -0.12150472
-0.014385699 -0.13359658 0.0924596 0.033795487 0.123607956 0.07968566 -0.0027390898 -0.23211075
-0.05609294 0.06488907 -0.030684974 0.011335883 0.2302983 0.095527045 0.1383159 0.11708889
-0.12008875 0.094949014 0.104938544 0.076440156 0.17514959 0.13514777 0.07665903 0.15111153
0.068686515 -0.022376096 0.20492348 0.12061451 -0.032316342 0.124026045 -0.31443775 -0.10411534
0.43278378 0.07774361 0.05954489 -0.15031914 0.05782849 0.09475446 0.10378642 -0.18644762
0.07206865 -0.02529982 0.19710563 -0.3295827 0.09150581 0.10848494 0.012946024 0.20010568
0.029968048 -0.083758734 -0.14663205 0.13830654 0.15184505 0.10081585 0.040816825 -0.05480012
0.2281242 0.08251847 0.43055865 -0.048148397 0.015661804 -0.034528624 -0.17029044 0.18461214
0.17871104 -0.025560271 -0.027381144 0.23030865 -0.24623056 0.103698075 0.0605255 -0.03308721
-0.16651414 0.06761342 0.0142693585 0.2954573 0.1425556 0.16611966 -0.0068646073 -0.01905243
-0.031420954 -0.2090755 -0.02732928 -0.23323834 0.17328247 0.090481065 -0.029759256 0.19619912
0.114007495 0.23651813 0.08622881 -0.09980946 -0.04002429 -0.22512412 0.05088969 0.0039653396
0.057879906 -0.38488618 0.16505149 0.068539575 -0.31456697 0.021602897 0.22580083 0.103682086
-0.020111006 0.0842488 0.15124771 -0.13314183 0.49530506 -0.073815994 0.06059649 -0.25374883
0.30165437 0.1447404 -0.052867208 0.051783897 -0.12103171 -0.065674886 0.041707482 -0.029402481
0.15152156 -0.06983519 0.22536196 -0.28297064 0.1978377 0.10947331 0.023691162 0.007836648
0.12168501 -0.018757857 0.10691395 0.1120395 0.05565661 -0.2145685 -0.04339194 -0.1292468
-0.28351414 -0.08223803 -0.24273303 -0.066973716 -0.07507278 0.06434336 -0.23215586 -0.38243473
0.32255334 0.23284625 0.01692234 0.44373953 -0.08338326 0.21691497 -0.028177204 -0.27208334
0.015487168 0.07014446 0.21533585 -0.03201216 -0.15638824 0.24541247 -0.16891618 0.03754562
0.382659 0.22280052 0.2527014 -0.15564553 -0.11362897 -0.045767684 0.1452906 0.11841111
-0.10980643 -0.25944605 0.10469493 -0.15501101 -0.05868022 0.13602498 0.25079477 -0.075162806
0.13132238 0.12140619 -0.0029136783 0.086123265 0.22385803 0.08099323 -0.0067617735 0.16743287
-0.003397177 0.25575313 0.17635202 -0.22199485 0.2774245 -0.087286934 -0.331748 0.16949353
-0.11704707 0.06461346 0.15166293 0.1650381 -0.15409324 -0.36983418 -0.110684425 -0.025239814
-0.06950294 0.024942327 -0.19826277 0.3134282 -0.34181246 0.26333028 -0.28111166 0.108123355
0.24885653 -0.008574812 -0.2768751 -0.28034675 0.063729204 0.23465341 -0.3974413 -0.12613782
0.009326093 0.43819872 -0.34714866 -0.2055726 0.022034585 -0.03717178 -0.016135307 -0.11366048
0.03192338 -0.21700476 0.08440826 0.1982681 -0.015294174 0.050435867 0.27813816 0.015563181

fc2.bias f4 [128]
00000000: c2dd adba e705 82bd 79db ee3b d4bc 133d
00000010: e374 923d 4659 dabc 9e4f 16be c6a3 6ebd
00000020: 392d e13d 6418 ddbd 60b2 22bd 5c3a bd3b
00000030: 7265 22be 932d 0abd 43e3 f93c 01a9 eabd
00000040: edbc e73c 489c 223e 46cd 353d 526a 2d3e
00000050: 5c86 0bbe 49ec 813d 8561 44bd b5fa e2bc
00000060: 01eb cf3c 577f 97bb 439e 4f3d 42ee 383d
00000070: 7ce9 773d e72d a4bd 0f65 a93d d62d 70bd
00000080: c750 71bc 6f58 e9bd 7ff1 2f3c d4dd 273d
00000090: 966a 203e 5e7d 51bd 24c6 cd3d f069 b13c
000000a0: a6b9 c83d c083 023e 321f 0a3e e50f 08be
000000b0: f46d 4dbc 023e a73c 71f2 c83d e7e2 dabd
000000c0: 33ca 753d ec7f 0b3d 9d63 843d 145c 0e3e
000000d0: df68 0f3d b5e0 3e3c 4f5d 99bd e19d d6bc
000000e0: ed7e d33c 3d39 c5bd 5cbb b5bd 5491 13bd
000000f0: b1e9 a5bd f178 97bb 80b3 1bbc a5e1 553d
00000100: 4b42 bbbd 8ff0 2abe 5a01 dd3d f888 8fbc
00000110: ce87 223e faa1 6e3d 60d3 e43d 219d 2f3d
00000120: fcfb 42bd 340a 323d ed9d d1bd 6200 e13d
00000130: 481d 763b 4c3c a8bc d7b6 39bd 7bce 61bc
00000140: 3076 1b3d 5f18 5c3d ea61 b13d e420 0d3d
00000150: 1211 20be 0243 b43d ef88 a93c 8a48 4f3d
00000160: d91e 3d3d e6a4 afbc a89e 52bc 9834 783d
00000170: fabe 69bd bfbd 88bd 65f4 72bd ead2 753d
00000180: f30a 8dbd f1b7 f13d b5e7 25bd 75e9 da3a
00000190: b673 07be e3db c03d 58a2 21bd 45e8 3dbd
000001a0: 940b 6dbd 4dde babc 9582 b5bd 1764 a23d
000001b0: 0311 0d3e 651e d1bd a5f9 c43a f897 1a3e
000001c0: 86af 04bd 436a 813d bf85 e93d 4ea1 ba3c
000001d0: 13a4 fe3c a9fb 31bc 8347 debc 8147 2a3d
000001e0: 1072 ed3d fabb 38be a05d 6f3d e506 d13d
000001f0: 2536 88bd 108e 7cbd a211 00be 0ed4 aa3c
-0.0013264942 -0.06348782 0.007289347 0.036068752 0.071512006 -0.026653897 -0.14678809 -0.058261655
0.10994954 -0.10795668 -0.039720893 0.0057747792 -0.15859011 -0.03373487 0.030503875 -0.11458016
0.028288329 0.15879929 0.044385217 0.16935089 -0.13625473 0.06343896 -0.047944564 -0.027707437
0.025380613 -0.0046233344 0.05068804 0.045149095 0.060525402 -0.08016568 0.082712285 -0.058637463
-0.0147287315 -0.113938205 0.0107387295 0.040983036 0.1566566 -0.05114495 0.10047558 0.02165696
0.09801035 0.12745571 0.13488463 -0.13287313 -0.012538422 0.02041531 0.09811867 -0.106878094
0.060007285 0.034057543 0.06464312 0.13902313 0.035012122 0.011650254 -0.074885 -0.02619833
0.025817359 -0.09630058 -0.088736266 -0.036027268 -0.08101214 -0.0046225716 -0.009503245 0.052217145
-0.09143504 -0.16693328 0.107912734 -0.017521366 0.15872118 0.05825994 0.11173129 0.04287446
-0.047603592 0.04346676 -0.102352 0.10986401 0.0037554074 -0.020536564 -0.045340385 -0.013782139
0.03795451 0.05373418 0.08661254 0.034455195 -0.15631512 0.08801843 0.020695178 0.050606288
0.046171997 -0.021440934 -0.012855209 0.060597032 -0.057066895 -0.06676816 -0.059315104 0.060015596
-0.06886854 0.11802662 -0.040504176 0.0016701656 -0.13227734 0.0941694 -0.039461464 -0.046364088
-0.05787237 -0.02281108 -0.08862797 0.07929247 0.1377602 -0.102108754 0.0015028013 0.15097034
-0.032393955 0.06319096 0.11402463 0.022781994 0.031084096 -0.010863223 -0.027133709 0.041572098
0.11594021 -0.18040457 0.058438897 0.10206393 -0.06650952 -0.06165892 -0.12506726 0.020853069

output.weight f4 [4, 128]
00000000: 8001 813d 45b5 01be 423d 7bbd c9d0 1abe
00000010: 4061 71be 7bbd 5b3e 8b81 f13e e4a5 01bd
00000020: f190 9ebd 97b6 1a3f d5dc 92bd 48a6 04be
00000030: 77ee 133f 3a5a 42be b76b 3a3c 4a71 413f
00000040: f336 c0bd cb9c 43be 4fb8 20bb a455 24be
00000050: ca2c dc3b 95d9 8f3e 7a41 cc3d fa5f 903f
00000060: 8e8e a93e 9078 913e de58 adbe fa74 36bd
00000070: bc7b e43c 860c 083e 25cc 00be 00a9 663c
00000080: f795 a2be 366d 703f 3afe 743e f6f1 b5bd
00000090: 7783 c5be 94e0 d93e a9db f5bc 8219 a9bd
000000a0: 720b 723c 3576 cabd c0d2 62bf 451c e13e
000000b0: b7b3 533e b26d 03bf 0927 983e 85bb 983e
000000c0: 9983 8d3e 01c8 89bd df25 033d 2b9a bfbe
000000d0: fc88 58bf bf2b 013f e694 973d 1f06 f83d
000000e0: 5ed8 b2be f48b e33e bfc8 513f 832e 083e
000000f0: c717 983e 55c4 47bd 5df4 313d fdee 8fbe
00000100: b5c2 93bd 8c5c ffbe 4d08 2abe 2113 553e
00000110: 8d75 95be 6ba2 aa3e d575 5bbe b8b7 c5bd
00000120: 0ce4 ec3e 770e 29bd 3158 143f 0056 1abe
00000130: c8a5 463e 22e5 87bc 72bf 55bf 68d8 aa3e
00000140: f7cb 89be 19c5 e1bd 304c 573e c470 79bf
00000150: 6071 fe3e 09b0 ad3e edba 8bbe 468d 9e3d
00000160: 66ec e7bc e4b1 263f e14a 8cbe 5f18 ffbb
00000170: b635 ca3e 5ac6 0b3f 886d 9c3e 87a4 8cbe
00000180: f095 e93d cf01 53be 5416 79bd f620 80bc
00000190: 91a0 f63e d875 c13e 4c47 6c3e 8b12 ad3d
000001a0: dd7a edbd 9c32 1e3f 2d28 b0be 5019 edbd
000001b0: 2337 49bd 2aa6 313f c32f 8e3e 765c d2be
000001c0: a920 693d 582a 90bd cae8 38be c2f5 6d3e
000001d0: 4959 f03d d88c c13d af9c 273f b199 03be
000001e0: 5728 89be 40fd b03c 831b 87bc 01ef 91be
000001f0: 1350 bb3e 22a0 52be f5fe 82bd 7920 b0bd
00000200: ed16 97be 60c6 9abe 6687 09be 699e 14be
00000210: cc44 c03e 9f2e e13e 57da c73d 2272 febe
00000220: a656 353e f46a 823e 1ade 13be 408b 063b
00000230: 9027 223e 1629 f3be aa93 2dbe 5a34 ff3e
00000240: d301 223e fc5c bb3d 1481 16be 755b 7d3d
00000250: 5477 013f 6775 7e3f 8a32 08be fe6c c4bd
00000260: 4247 3ebf eb08 a03d 1b2c e53e f639 f53c
00000270: cd45 fd3c ed48 3b3e c86d 37be 0128 d8bd
00000280: 0fe5 733e 20ae 6f3d 3f9b e63e a23c 863e
00000290: 99a9 353f 77d6 a73d 5375 5f3f 2bf7 82bd
000002a0: f705 b8bc 2adf 763d bf3b f53e fa4e 29bf
000002b0: b479 9dbc 6b72 2a3f 82eb 63bd 20a6 763e
000002c0: 8be8 88bd 8191 2f3d 99db 22be c5fc 35bd
000002d0: b388 843e c4b4 e93d af60 99be 609a 4f3e
000002e0: e851 a4bd 67e4 333f 249c af3e 3783 34bf
000002f0: bf28 5a3e 5213 d33d ba6d c8be 1d20 88bd
00000300: a1b4 d33d be45 a9be 9245 013d 7f4b d1be
00000310: 0e61 c93e cbc1 1ebe 8e40 9f3e f432 98bb
00000320: 885e 643e eab9 7cbe b1c8 2bbc 407b 7fbe
00000330: f408 e2bd a88f 42be c5df 163e 0b3f 67be
00000340: 0fdb 67bd fa57 ac3c a56a 91bd d5a1 f8bd
00000350: cc14 443e d2b8 e7bd b233 4abb 7c0b 58bd
00000360: cab7 033d eacc c53d fd9a 9f3e 46a3 4e3d
00000370: e3b2 8dbe 681b bc3d 386b 3e3c 24d9 443d
00000380: e108 f5bd d288 363e 778a 89be 37aa 01bd
00000390: 65f4 f1bc b3b5 debb 6281 e43d 1af0 cb3c
000003a0: 6cc7 013e b1de 48bc b48a 043e d706 a73d
000003b0: 0f95 a63c a1d1 783d 1b21 093b 54fa 433d
000003c0: f10a bfbe d664 bfbd b1c6 4d3d b1a6 043d
000003d0: 2bd2 143e 5b47 b73f cef3 253e 0786 3abe
000003e0: 3b96 843e 8d73 6e3e f673 3e3d 3fb9 42be
000003f0: 1bbd a03d 5d14 883e 6932 0a3e 4c1a 053e
0.06299114 -0.12666805 -0.061337717 -0.15118708 -0.23572254 0.21459 0.47169146 -0.031652346
-0.07742489 0.6043486 -0.071710266 -0.12954056 0.57785743 -0.18979731 0.01137822 0.7556349
-0.09385481 -0.1910278 -0.002452392 -0.16048294 0.0067192065 0.2809569 0.09973426 1.127929
0.33116573 0.28412294 -0.33856863 -0.04454515 0.027891032 0.13286027 -0.12577875 0.014078379
-0.3175504 0.9391664 0.23925105 -0.08884041 -0.38576862 0.42554152 -0.030011969 -0.08256818
0.014773237 -0.098858275 -0.8860283 0.4396688 0.20674025 -0.51339257 0.2971728 0.29830566
0.27639464 -0.06727601 0.03201854 -0.37422308 -0.8458402 0.50457376 0.07401447 0.121105425
-0.349307 0.44442713 0.8194694 0.13298993 0.2970564 -0.04877122 0.043445934 -0.2811202
-0.07214872 -0.49875295 -0.16604729 0.20808078 -0.29191247 0.3332704 -0.21431668 -0.09654182
0.46267736 -0.04127356 0.5794707 -0.15071869 0.19399178 -0.016588751 -0.8349525 0.3336823
-0.26913425 -0.110239215 0.21025157 -0.9743769 0.49695873 0.33923367 -0.2729105 0.077417895
-0.028310966 0.6511519 -0.27400878 -0.0077848877 0.39494103 0.54599535 0.30552316 -0.27469274
0.114055514 -0.20606159 -0.06081231 -0.015640717 0.48169377 0.3778522 0.23074073 0.084508024
-0.115957 0.61795974 -0.34405652 -0.115770936 -0.049124848 0.6939417 0.27770814 -0.41086167
0.056915913 -0.070393264 -0.18057552 0.2323828 0.1173578 0.09450692 0.65473455 -0.12851597
-0.2678859 0.021605134 -0.01649261 -0.28502658 0.3658453 -0.20568898 -0.063962854 -0.08599944
-0.29509678 -0.30229473 -0.13430557 -0.14513554 0.37552488 0.43980882 0.09758442 -0.4969645
0.17708835 0.25472224 -0.14440194 0.0020529777 0.15835404 -0.47492284 -0.1695086 0.4984463
0.15821008 0.09148595 -0.14697677 0.0618548 0.50572705 0.9939789 -0.13300529 -0.09591101
-0.7432748 0.07814201 0.44760212 0.029934864 0.030917073 0.18289538 -0.17912972 -0.10554505
0.23817848 0.058515668 0.45040318 0.26218134 0.7096191 0.08195203 0.872884 -0.063948
-0.022463782 0.06027142 0.47897145 -0.66136134 -0.019223072 0.6658084 -0.05564452 0.24086809
-0.06684979 0.042863373 -0.15904082 -0.044430513 0.25885543 0.114114314 -0.29956576 0.20273733
-0.08023435 0.7027039 0.34298813 -0.7051272 0.21304606 0.103064194 -0.39146215 -0.0664675
0.103371866 -0.33061022 0.031560488 -0.4087791 0.3933186 -0.15503614 0.3110394 -0.004644746
0.22301686 -0.24680296 -0.01048486 -0.2494936 -0.11036864 -0.19000113 0.14733799 -0.22582643
-0.056605395 0.021038044 -0.07100419 -0.12140242 0.19148558 -0.113145486 -0.0030853567 -0.052745327
0.032157697 0.09658225 0.31172934 0.05044868 -0.27675542 0.09184915 0.011622243 0.048058644
-0.11964584 0.1782563 -0.26863453 -0.03165647 -0.029535482 -0.0067965626 0.1115749 0.024894763
0.1267373 -0.012260125 0.12943536 0.081556015 0.020334749 0.060746793 0.0020924273 0.047846153
-0.37313035 -0.09345405 0.050238315 0.03238553 0.14533298 1.4318651 0.16206285 -0.1821519
0.25895867 0.23286267 0.046497308 -0.19015978 0.07848569 0.26578036 0.13495792 0.12998313

output.bias f4 [4]
00000000: 2411 4bbe f0bd b13c 6f44 c43d 6b0a 0f3c
-0.19830757 0.021697015 0.09583365 0.008730511
