p2_continuous-control/weights/checkpoint_critic.pth (torch_old, 87983 bytes, 9 tensors)

bn1d.weight f4 [33]
0.5493915 0.34011766 0.5526802 0.04039657 0.015480096 0.04169106 0.044592347 0.057618137
0.08229485 0.071677186 0.06745581 0.08966812 0.115943395 0.91463673 0.38383463 0.98889023
0.030874487 0.018696796 0.021839963 0.030597921 0.06386824 0.052660897 0.03797858 0.42191252
0.171241 0.39529684 1.1011698 0.03616482 0.857742 0.37341738 0.30510002 0.9320004
0.9475246
00000000: eca4 0c3f e723 ae3e 737c 0d3f e076 253d
00000010: 3ba0 7d3c 3fc4 2a3d 77a6 363d ff00 6c3d
00000020: 348a a83d 7dcb 923d 4626 8a3d eba3 b73d
00000030: bb73 ed3d a225 6a3f f985 c43e e927 7d3f
00000040: 7eec fc3c 062a 993c b9e9 b23c 7ea8 fa3c
00000050: 5acd 823d f4b2 573d 6d8f 1b3d eb04 d83e
00000060: cd59 2f3e 5964 ca3e 22f3 8c3f 9021 143d
00000070: fb94 5b3f 9030 bf3e 1236 9c3e 9497 6e3f
00000080: f990 723f

bn1d.bias f4 [33]
0.2082921 -0.16870883 0.1708267 0.027567621 0.0068639796 -0.010787692 -0.003193146 0.002179413
-0.025481256 0.045755804 0.03212027 -0.065921046 0.100383654 0.12627597 0.109756246 0.24625403
-0.0021395753 0.0042059007 -0.0013101859 0.007736734 -0.0018705024 -0.0011768148 -0.0029230095 -7.458903e-06
-0.021113623 0.012673555 0.108811535 -0.007430001 0.013930916 -0.002013513 -0.0016199095 0.0020623181
-0.018176345
00000000: 864a 553e 02c2 2cbe 32ed 2e3e 7ed5 e13c
00000010: 3ceb e03b dcbe 30bc 1a44 51bb 7cd4 0e3b
00000020: 11be d0bc 706a 3b3d 8b90 033d 9d01 87bd
00000030: f295 cd3d 7d4e 013e e2c7 e03d 042a 7c3e
00000040: 1e38 0cbb a7d1 893b 8bba abba 6e84 fd3b
00000050: a52b f5ba 5a3f 9aba f68f 3fbb 7d47 fab6
00000060: 7af6 acbc bea4 4f3c 95d8 de3d 5e77 f3bb
00000070: 7f3e 643c 24f5 03bb 2553 d4ba f527 073b
00000080: 8fe6 94bc

bn1d.running_mean f4 [33]
1.0634525 -2.3277605 -0.0034457673 0.8155742 0.12421531 -0.026377294 -0.005528687 0.028926848
-0.019206237 0.008227506 -0.006359485 -0.043223184 -0.049928173 1.183765 -2.1063573 0.4408327
0.050887164 -0.02555137 0.04283266 0.2430313 -0.021526491 0.004957004 0.014606275 0.044349715
0.11632901 -0.029170638 0.17928237 -0.99999976 -0.048979543 0.0 0.99999976 0.0
-0.013645065
00000000: 361f 883f 07fa 14c0 62d2 61bb 79c9 503f
00000010: 9964 fe3d 3215 d8bc fd29 b5bb fff7 ec3c
00000020: 6656 9dbc a9cc 063c 3a63 d0bb cb0a 31bd
00000030: 7c81 4cbd 9d85 973f 8fce 06c0 d3b4 e13e
00000040: 0f6f 503d 1b51 d1bc 4d71 2f3d 32dd 783e
00000050: 5358 b0bc 5d6e a23b 284f 6f3c 0ca8 353d
00000060: e73d ee3d 43f7 eebc cc95 373e fcff 7fbf
00000070: c69e 48bd 0000 0000 fcff 7f3f 0000 0000
00000080: 8d8f 5fbc

bn1d.running_var f4 [33]
3.8354099 0.49921545 5.196769 0.094241776 0.06529903 0.03189957 0.12759146 0.31556946
0.061260205 0.080330074 1.7863175 0.9602665 2.239607 17.800657 0.80835885 23.073711
0.082196735 0.23114376 0.08458286 0.53938216 1.1944706 0.4839446 0.46032324 6.366772
1.5773498 8.516723 31.9439 6e-45 32.02067 6e-45 6e-45 6e-45
0.34150138
00000000: 5b77 7540 2b99 ff3e ef4b a640 d501 c13d
00000010: 7fbb 853d 20a9 023d 56a7 023e 5292 a13e
00000020: fbeb 7a3d 1884 a43d 0da6 e43f 06d4 753f
00000030: b955 0f40 bf67 8e41 9bf0 4e3f f696 b841
00000040: c356 a83d f3b0 6c3e c739 ad3d f314 0a3f
00000050: 6ae4 983f 96c7 f73e 7daf eb3e 99bc cb40
00000060: 99e6 c93f 7f44 0841 1b8d ff41 0400 0000
00000070: 2b15 0042 0400 0000 0400 0000 0400 0000
00000080: 45d9 ae3e

fc1.weight f4 [128, 33]
-0.5061022 0.1806105 -0.0015185468 -0.25291407 -0.28893873 -0.15571381 0.18699543 0.064119525
0.1410009 -0.33349824 0.09265125 0.23411007 -0.12164963 0.32765204 -0.19177179 -0.31211734
-0.16239753 0.0850488 0.22846511 -0.27430674 -0.16179083 0.48076174 -0.04861234 0.18393134
0.4646423 0.15423667 -0.15842669 0.03486656 -0.22509445 -0.05330604 0.02912156 0.084660426
0.20499688 -0.25426567 -0.2750982 0.24753922 -0.36400932 -0.04338284 -0.10785343 -0.26259428
0.25741982 -0.349838 -0.3373376 -0.11973786 -0.24257317 0.3510652 0.036748383 0.5664877
-0.46796364 -0.3122043 -0.09859474 -0.12767422 0.031671755 0.13460436 -0.189608 0.5231837
-0.3640266 0.44307125 -0.08202208 0.027631857 -0.017911216 0.1766932 0.008533286 -0.04044973
0.0067147436 -0.11038022 -0.51762587 -0.058417987 0.28053555 -0.24197283 -0.047504954 0.025470084
0.008994225 -0.42404655 -0.02725788 0.20068343 -0.6770323 0.42902598 -0.43632075 0.37996596
0.26068643 -0.21617357 0.17336644 -0.02542688 -0.29626387 0.19900785 0.06631409 -0.83042645
-0.46086445 0.36251527 -0.16892257 0.04215682 0.030953694 -0.0356825 -0.096121915 -0.008525806
0.050823785 0.010416465 0.0094031645 0.015919356 -0.078496926 0.32258272 0.011399157 -0.028914506
0.02609086 0.09199684 -0.09143852 -0.23899968 0.26413497 0.090259075 0.0015031423 0.5927271
-0.21490231 0.13470504 -0.27931526 -0.17312399 -0.08438419 -0.0653714 0.19522223 -0.9082298
-0.07683666 -0.38359472 -0.049989548 -0.19257618 -0.27809224 0.19694826 -0.012783433 0.22695549
-0.006798351 0.012319891 0.030110288 -0.06325063 -0.101332866 -0.0035647305 0.59024614 -0.1756297
-0.10416325 -0.17082617 -0.042102627 -0.18061535 0.048703533 -0.27568617 0.009915234 0.097225465
0.57315564 -0.5679267 -0.027509514 -0.57686263 -0.02083733 0.0945851 -0.14979163 -0.005731145
-0.056052476 -0.46495026 -0.046759143 -0.17465843 -0.23131472 -0.25714117 0.16093916 0.026085967
0.32817155 0.027943866 -0.06893151 0.05169701 -0.0571826 -0.11439763 -0.089626245 0.25171033
-0.0030742951 0.016540293 0.05881066 -0.31942943 0.24595363 -0.10397898 -0.29319057 -0.06226236
-0.05798238 -0.34350142 -0.013858707 -0.38907787 0.05005787 -0.043297872 -0.03502781 -0.14585507
0.13182738 -0.61117554 -0.4548627 -0.28402078 -0.49970067 -0.0388897 -0.35638642 -0.21795031
0.06768991 -0.09164226 -0.00036782428 0.053611264 -0.019150874 0.30053115 -0.14361785 -0.22760648
-0.13030139 -0.051973686 0.22787793 0.024586778 -0.14450087 -0.18237737 0.20093876 0.11104263
0.079038985 0.037673656 -0.13291052 0.12913501 0.2803296 0.10575991 -0.28932974 -0.00714898
-0.18393643 0.058739457 0.053135067 0.025659947 0.20830427 -0.065925 0.08559678 -0.053468134
0.21716195 0.038481962 -0.6086739 0.020450315 -0.03324213 -0.014120562 -0.7247166 0.47282767
-0.04305939 0.10940547 0.09806108 -0.10477693 0.022792252 0.010293475 -0.2953271 -0.36442652
0.0938795 0.01178891 -0.076582 0.15768433 -0.47173285 -0.0693727 0.14020543 -0.056446724
-0.052616246 0.04213368 0.049361743 0.08993314 -0.043704696 0.20282397 -0.2135064 0.0017645755
00000000: ea8f 01bf f5f1 383e fa09 c7ba f47d 81be
00000010: c7ef 93be 7173 1fbe bb7b 3f3e 1951 833d
00000020: 8a62 103e 48c0 aabe f0bf bd3d 8dba 6f3e
00000030: 7123 f9bd 02c2 a73e d35f 44be d8cd 9fbe
00000040: 8a4b 26be 112e ae3d c2f2 693e ef71 8cbe
00000050: 7fac 25be 6726 f63e bc1d 47bd 7f58 3c3e
00000060: 98e5 ed3e 38f0 1d3e 9b3a 22be 3dd0 0e3d
00000070: 297f 66be 6f57 5abd 5690 ee3c 7262 ad3d
00000080: b4ea 513e 1c2f 82be acd9 8cbe ec7a 7d3e
00000090: 6e5f babe 34b2 31bd 42e2 dcbd c272 86be
000000a0: 88cc 833e f71d b3be 84b7 acbe 2039 f5bd
000000b0: 1a65 78be d1be b33e 7985 163d 5705 113f
000000c0: ee98 efbe 3ed9 9fbe 0aec c9bd 08bd 02be
000000d0: 3eba 013d bad5 093e 9928 42be 5eef 053f
000000e0: b261 babe 3cda e23e 31fb a7bd 345c e23c
000000f0: 8bba 92bc 10ef 343e 32cf 0b3c 9eae 25bd
00000100: 5a07 dc3b 060f e2bd 2183 04bf b347 6fbd
00000110: 5ba2 8f3e bac7 77be 8e94 42bd a3a6 d03c
00000120: 845c 133c a11c d9be eb4b dfbc f57f 4d3e
00000130: fd51 2dbf 4ba9 db3e 6f65 dfbe e68a c23e
00000140: b178 853e 9b5c 5dbe f986 313e 084c d0bc
00000150: e6af 97be b7c8 4b3e aecf 873d d496 54bf
00000160: 6df6 ebbe 9a9b b93e 0afa 2cbe a1ac 2c3d
00000170: 9a92 fd3c d027 12bd 91db c4bd d2af 0bbc
00000180: 9a2c 503d d2a9 2a3c bb0f 1a3c 4f69 823c
00000190: ffc2 a0bd 9029 a53e 88c3 3a3c 1dde ecbc
000001a0: 80bc d53c d768 bc3d 1e44 bbbd 55bc 74be
000001b0: b33c 873e c0d9 b83d 1605 c53a f7bc 173f
000001c0: 5a0f 5cbe 1ef0 093e 6902 8fbe 6a47 31be
000001d0: 9ed1 acbd 71e1 85bd 56e8 473e c081 68bf
000001e0: 8a5c 9dbd 8766 c4be d7c1 4cbd b132 45be
000001f0: 1b62 8ebe ceac 493e 9b71 51bc 0567 683e
00000200: b4c4 debb 5ed9 493c daa9 f63c 8c89 81bd
00000210: 9b87 cfbd 419e 69bb 5f1a 173f 46d8 33be
00000220: 8b53 d5bd 0eed 2ebe ce73 2cbd 3bf3 38be
00000230: 5b7d 473d bd26 8dbe 8173 223c 251e c73d
00000240: 54ba 123f a563 11bf a25b e1bc 45ad 13bf
00000250: 0cb3 aabc d5b5 c13d fa62 19be 54cc bbbb
00000260: 4897 65bd f60d eebe 8486 3fbd a9d9 32be
00000270: c4dd 6cbe 02a8 83be 3ccd 243e 3db2 d53c
00000280: 1a06 a83e 89ea e43c f72b 8dbd 3ec0 533d
00000290: 4d38 6abd 4e49 eabd f78d b7bd 2de0 803e
000002a0: 1d7a 49bb 827f 873c 72e3 703d 418c a3be
000002b0: 45db 7b3e eef2 d4bd 131d 96be d106 7fbd
000002c0: ef7e 6dbd 6bdf afbe a10f 63bc 3735 c7be
000002d0: 7b09 4d3d 1c59 31bd 5279 0fbd 085b 15be
000002e0: c2fd 063e 0076 1cbf c4e3 e8be 2c6b 91be
000002f0: c4d8 ffbe ce4a 1fbd 4878 b6be 5e2e 5fbe
00000300: 02a1 8a3d f0ae bbbd 8ad8 c0b9 7c97 5b3d
00000310: 4be2 9cbc 38df 993e 8f10 13be ac11 69be
00000320: ba6d 05be 5ce2 54bd d558 693e 366a c93c
00000330: 09f8 13be 22c1 3abe e4c2 4d3e 526a e33d
00000340: 31df a13d b14f 1a3d b219 08be f83b 043e
00000350: 5d87 8f3e a798 d83d 0723 94be fe41 eabb
00000360: d559 3cbe c998 703d 28a4 593d cf34 d23c
00000370: b74d 553e b003 87bd 5d4d af3d 6701 5bbd
00000380: b45f 5e3e 439f 1d3d 0dd2 1bbf 6b87 a73c
00000390: e628 08bd ee59 67bc 0787 39bf 7816 f23e
000003a0: 0b5f 30bd fa0f e03d 3fd4 c83d 4995 d6bd
000003b0: d1b6 ba3c f7a5 283c 1d35 97be 1d96 babe
000003c0: e543 c03d 4626 413c 06d7 9cbd 0078 213e
000003d0: f886 f1be 4613 8ebd 0392 0f3e ae34 67bd
000003e0: 2284 57bd 5e94 2c3d 8a2f 4a3d de2e b83d
000003f0: b203 33bd 16b1 4f3e 6ca1 5abe 5449 e73a

fc1.bias f4 [128]
-0.47103673 -0.37079263 -0.051827554 -0.1431297 -0.69985497 -0.5277509 -0.18320273 -0.25937387
0.10294588 -0.7509574 -0.27480206 -0.5214492 -0.3477872 -0.048047103 -0.26253912 -0.60144395
-0.15600829 -0.11090343 -0.34056407 -0.88885766 -0.5011087 -0.372419 -0.41463232 -0.5843385
-0.24120928 -0.3258886 -0.27515197 -0.07147688 -0.32714593 -0.5694726 -0.26198792 -0.5025707
-0.25342092 -0.24756019 -0.23538616 -0.2750654 -0.11868943 -0.28942728 -0.2886662 -0.65922457
-0.56390935 -0.3680141 -0.40026683 -0.35494396 -0.58040226 -0.13665985 -0.3273304 -0.26381183
-0.33599877 -0.24439076 -0.4324115 0.24259093 -0.28577417 -0.36374602 -0.40663382 -0.25473994
-0.30915883 -0.59964186 0.2639714 -0.27971283 -0.6121508 -0.4937209 -0.12623063 -0.15107393
-0.40101737 -0.21459353 -0.7287201 -0.16274722 -0.30539015 -0.38630444 -0.5512665 -0.10759375
-0.57338333 -0.2716858 -0.2924402 -0.23272198 -0.15932871 -0.21566483 -0.028936151 -0.09150747
0.023267183 -0.03874254 -0.43492118 -0.30084667 -0.25335205 -0.34066132 -0.29767805 -0.5390119
-0.71668005 -0.019860573 -0.1442649 -0.39187065 -0.4196222 -0.317121 -0.2181142 -0.06250605
-0.4693125 0.14585677 -0.32826436 -0.32791135 -0.3023181 -0.4687586 -0.5913575 -0.29100677
-0.5822098 0.06689298 -0.08970445 -0.041261725 -0.08092217 -0.44752687 -0.36498415 -0.32489422
-0.1348319 -0.7126515 -0.1285785 -0.11062414 -0.40191862 -0.39457247 -0.35413292 -0.13702223
0.00486992 -0.42204913 -0.5639899 -0.3224998 -0.34493545 -0.08422597 -0.51728314 -0.08664857
00000000: ba2b f1be 88d8 bdbe 2149 54bd 9890 12be
00000010: b229 33bf af1a 07bf 7f99 3bbe a7cc 84be
00000020: 4ad5 d23d bf3e 40bf dbb2 8cbe b27d 05bf
00000030: 2a11 b2be 0acd 44bd 876b 86be 3bf8 19bf
00000040: a3c0 1fbe 5621 e3bd 6a5e aebe 2d8c 63bf
00000050: a948 00bf b4ad bebe b04a d4be 3597 15bf
00000060: 91ff 76be dfda a6be b8e0 8cbe 7862 92bd
00000070: ac7f a7be f5c8 11bf 4823 86be 79a8 00bf
00000080: 63c0 81be 6b80 7dbe 1209 71be 5fd5 8cbe
00000090: 7213 f3bd d02f 94be 0ecc 93be f1c2 28bf
000000a0: 5d5c 10bf 586c bcbe c6ef ccbe 37bb b5be
000000b0: 3e95 14bf 8ff0 0bbe da97 a7be 5812 87be
000000c0: 0808 acbe 9241 7abe 0a65 ddbe c269 783e
000000d0: fe50 92be eb3c babe 4f32 d0be 466d 82be
000000e0: 114a 9ebe 2182 19bf 4227 873e 8536 8fbe
000000f0: eab5 1cbf fcc8 fcbe 9a42 01be 20b3 1abe
00000100: 2652 cdbe 68be 5bbe 678d 3abf 35a7 26be
00000110: 195c 9cbe b2c9 c5be cd1f 0dbf 1d5a dcbd
00000120: 40c9 12bf 671a 8bbe b9ba 95be ac4e 6ebe
00000130: 1127 23be 3ed7 5cbe 820b edbc 4568 bbbd
00000140: d29a be3c 7fb0 1ebd fdad debe 9308 9abe
00000150: 5cb7 81be 296b aebe 4269 98be affc 09bf
00000160: 5878 37bf a4b2 a2bc 2eba 13be 45a3 c8be
00000170: b9d8 d6be af5d a2be 5459 5fbe 2c03 80bd
00000180: ba49 f0be 7a5b 153e 4412 a8be ffe3 a7be
00000190: 70c9 9abe 2101 f0be 3563 17bf d7fe 94be
000001a0: b40b 15bf 30ff 883d f7b6 b7bd 0e02 29bd
000001b0: 86ba a5bd 3e22 e5be 34df babe 8958 a6be
000001c0: 6011 0abe 5470 36bf 15aa 03be e98e e2bd
000001d0: 47c8 cdbe 6705 cabe e950 b5be 8e4f 0cbe
000001e0: da93 9f3b d316 d8be a461 10bf b21e a5be
000001f0: 619b b0be aa7e acbd ab6c 04bf ce74 b1bd

fc2.weight f4 [128, 132]
-0.45737186 0.21620311 0.047744535 0.05827418 -0.19342399 -0.37112394 0.12044468 -0.08783197
0.11706709 -0.35162875 -0.18271291 -1.2402709 -0.21594307 0.61469 -0.046880383 -0.1804628
0.03846165 -0.21874711 0.12706913 -0.25257692 -0.3516996 -0.42929602 -0.3371347 -0.6611074
-0.0013523884 -1.0257188 -0.14450286 0.26768255 -1.0201594 -0.077582166 -0.1318179 0.39573035
0.18598196 -0.043174013 -0.16641873 -0.80066514 -0.36404875 -0.17422841 -0.4860239 -0.11395329
-0.9103203 -0.65726244 -0.5906682 0.38157916 0.17870034 0.21211761 -0.102071516 0.27051803
-0.42525563 -0.4312851 0.14933772 -0.23220275 0.05377256 0.15712218 -0.072157554 0.24182935
-0.3308775 0.03625844 -0.020656528 -0.6520374 0.40797284 0.15760536 -0.64206356 -0.047819667
-0.19314858 0.39775556 0.18198474 0.04263444 0.21754873 -0.07006616 0.2801464 -0.24550019
-0.21156034 -0.3480558 0.30957824 0.0022037758 -0.2950176 0.2288661 0.15791209 -0.06764666
-0.13926323 0.34603485 0.009964765 -0.12744398 0.103410535 -0.5731047 -0.09186221 -0.51172554
-0.3269994 0.01165898 -0.49607 -0.49229163 -0.24597509 -0.077738605 -0.14116295 -0.15176061
-0.18112421 0.105203256 -0.16011405 -0.33020413 -0.2071874 0.027695337 -0.008242264 -0.48359993
-0.6626699 -0.901342 -0.03595119 0.017011233 -0.025642568 -0.43023697 -0.021718774 0.3109165
-0.86241794 -0.2264242 0.22305392 0.3484316 -0.8578399 -0.44424725 0.15304464 -0.75090545
0.10929469 0.18842788 -0.007813429 0.21710388 0.31964415 -0.83206284 0.46416688 -0.121262036
0.018257568 -0.016134366 -0.0005657549 0.04065708 -0.35751525 0.241523 -0.2321914 -0.16568448
-0.52518713 -0.752718 -0.74041635 0.11988119 0.26622733 0.21073878 -0.110506654 0.13354686
0.23697168 -0.25662962 -0.008026482 -0.30830282 -0.3079649 -0.107208855 -0.2156632 -0.28621778
0.29829574 -0.0846641 -0.524733 -0.12515408 -0.25085595 0.06272359 0.1121685 -0.2718639
-0.40961137 -0.62469745 -0.38926223 -0.0066297976 0.264162 0.06915083 -0.015239097 -0.31564468
0.25542063 -0.008151041 -0.20814656 -0.73949355 0.061799265 -0.12336646 0.23741487 0.34350643
-0.40045547 0.2424443 -0.29189637 -0.63944626 -0.30104923 -0.07260869 -0.7196728 0.28477782
0.13840227 -0.60435945 0.08576023 0.004144763 -0.28124112 -0.3186798 -0.12369433 0.49011847
-0.222158 0.26122415 0.05570059 0.44927296 0.2572019 -0.014531649 -0.6606535 -0.27802205
-0.5267416 0.30362904 0.16387221 0.20711766 -0.36011976 0.38283855 0.06517943 0.22260673
0.068584785 -0.6823835 -0.14891806 -0.5216931 -0.07795565 0.19859722 0.2947978 -0.027987389
-0.25575832 -0.101157375 -0.35822475 -0.12047823 -0.5415493 0.008919278 -0.5171933 0.38148317
-0.3222724 0.39382663 -0.7927108 -0.15536334 -0.021321004 -0.599636 0.13040297 0.3049689
-0.24148662 -0.33622396 -0.32400608 -0.23987693 0.15005267 0.1964254 -0.18318251 0.08398737
-0.14652348 -0.25720423 0.2465388 -0.9120905 0.025794728 0.2635305 0.34504834 0.23514488
0.46202624 -0.23984449 0.08208549 -0.3718932 0.044913244 -0.32737282 0.7950144 0.2005657
00000000: a52c eabe 5964 5d3e c68f 433d e8b0 6e3d
00000010: f010 46be f503 bebe b3ab f63d 3fe1 b3bd
00000020: dfc0 ef3d af08 b4be 1819 3bbe 32c1 9ebf
00000030: 2e20 5dbe 535c 1d3f a505 40bd 3ecb 38be
00000040: f789 1d3d 3eff 5fbe 691e 023e c351 81be
00000050: f811 b4be b0cc dbbe eb9c acbe 563e 29bf
00000060: a042 b1ba c14a 83bf 8ff8 13be b00d 893e
00000070: 9594 82bf 66e3 9ebd 46fb 06be 2b9d ca3e
00000080: 0e72 3e3e 3cd7 30bd ac69 2abe 64f8 4cbf
00000090: 9964 babe ef68 32be 20d8 f8be 5860 e9bd
000000a0: c00a 69bf 5a42 28bf 0836 17bf 585e c33e
000000b0: 39fd 363e 5c35 593e df0a d1bd 5781 8a3e
000000c0: 1bbb d9be 67d1 dcbe fdeb 183e 8fc6 6dbe
000000d0: 9e40 5c3d a3e4 203e 57c7 93bd 1da2 773e
000000e0: c768 a9be bb83 143d e137 a9bc eceb 26bf
000000f0: d1e1 d03e 4d63 213e 475e 24bf 8ede 43bd
00000100: bec8 45be 9ea6 cb3e 355a 3a3e 73a1 2e3d
00000110: 18c5 5e3e d97e 8fbd 596f 8f3e 6764 7bbe
00000120: 46a3 58be 5f34 b2be 0a81 9e3e 396d 103b
00000130: 8c0c 97be e05b 6a3e b5b3 213e 558a 8abd
00000140: 059b 0ebe 7b2b b13e 4143 233c ad80 02be
00000150: e7c8 d33d fdb6 12bf 4122 bcbd 7200 03bf
00000160: 776c a7be 4e05 3f3c e3fc fdbe a60d fcbe
00000170: e5e0 7bbe 6b35 9fbd 058d 10be 2267 1bbe
00000180: a078 39be ce74 d73d f0f4 23be 8410 a9be
00000190: ef28 54be 55e1 e23c 900a 07bc 699a f7be
000001a0: bca4 29bf 59be 66bf 8e41 13bd 245b 8b3c
000001b0: 5d10 d2bc 0548 dcbe 92eb b1bc 7330 9f3e
000001c0: 6cc7 5cbf bfdb 67be 3f68 643e a065 b23e
000001d0: 659b 5bbf 6074 e3be bcb7 1c3e 573b 40bf
000001e0: e5d5 df3d 3df3 403e e603 00bc 7b50 5e3e
000001f0: 66a8 a33e 1202 55bf 48a7 ed3e 3b58 f8bd
00000200: e590 953c 382c 84bc 2b4f 14ba 0a88 263d
00000210: 3d0c b7be ce51 773e 95c3 6dbe 31a9 29be
00000220: aa72 06bf 20b2 40bf ed8b 3dbf 4584 f53d
00000230: f34e 883e e8cb 573e 5051 e2bd 82c0 083e
00000240: b4a8 723e f564 83be 8181 03bc ded9 9dbe
00000250: 93ad 9dbe 5190 dbbd d0d6 5cbe 238b 92be
00000260: 38ba 983e 5f64 adbd e754 06bf 6428 00be
00000270: 3170 80be 3a75 803d 99b8 e53d bf31 8bbe
00000280: 95b8 d1be 2cec 1fbf 614d c7be c63e d9bb
00000290: 3e40 873e f39e 8d3d 68ad 79bc 2e9c a1be
000002a0: 7ec6 823e f28b 05bc 5f24 55be 734f 3dbf
000002b0: 3a21 7d3d 8ea7 fcbd e21c 733e 13e0 af3e
000002c0: 8008 cdbe 5243 783e 7173 95be c0b2 23bf
000002d0: 2023 9abe ddb3 94bd 7a3c 38bf 66ce 913e
000002e0: 53b9 0d3e 4db7 1abf 0fa3 af3d cbd0 873b
000002f0: d6fe 8fbe 002a a3be 7453 fdbd cff0 fa3e
00000300: 637d 63be 2cbf 853e 4d26 643d 1b07 e63e
00000310: f8af 833e 2716 6ebc 9620 29bf e858 8ebe
00000320: 8ad8 06bf 4475 9b3e 1ece 273e a716 543e
00000330: 9e61 b8be 6a03 c43e cb7c 853d 05f3 633e
00000340: 2e76 8c3d afb0 2ebf fa7d 18be ae8d 05bf
00000350: 36a7 9fbd 125d 4b3e bdef 963e cf45 e5bc
00000360: c1f2 82be 992b cfbd 3c69 b7be 4abd f6bd
00000370: faa2 0abf 2a22 123c c866 04bf c351 c33e
00000380: e300 a5be a5a3 c93e 18ef 4abf 9117 1fbe
00000390: 63a9 aebc bf81 19bf 5b88 053e e224 9c3e
000003a0: 4548 77be 8c25 acbe 20e4 a5be 4ca2 75be
000003b0: 68a7 193e bd23 493e 3294 3bbe 9201 ac3d
000003c0: 400a 16be 46b0 83be ab74 7c3e c37e 69bf
000003d0: 774f d33c 78ed 863e 2daa b03e d2c9 703e
000003e0: b48e ec3e cb99 75be 701c a83d c968 bebe
000003f0: f3f6 373d 699d a7be 1086 4b3f 1861 4d3e

fc2.bias f4 [128]
0.27740842 0.32666984 -0.7953981 0.46241358 0.14290103 -0.13338456 0.054830622 -0.034393735
0.86479795 0.6624005 0.49394417 -0.09863894 -0.0021583624 0.034080017 0.83328456 0.12009928
0.02239049 -0.030344201 -1.0510167 -0.19041167 0.15384887 -0.1962164 0.12637378 -0.22609334
0.55506575 0.4533349 -0.044966653 -0.26756886 -0.93322116 -0.2963109 -0.17460035 0.43450832
0.023915164 -0.97345954 0.1782278 -0.4156513 -1.0105478 -0.087080315 0.31660137 0.4154663
-0.25785694 -0.041895952 0.07079433 -0.112219 -0.34015784 -0.16740552 -0.0886776 -0.32935128
0.21015923 -0.17807001 -0.34527314 0.28194305 0.120094016 -0.33215377 -0.35753748 -0.44194013
0.021117307 -0.2982376 -0.2127161 -1.0198638 -0.85703194 0.5920085 -0.049041685 -0.3932249
0.40718094 -0.12865223 -0.19061066 0.17563355 0.42338914 -0.9670887 -0.29580367 0.19285956
-0.24993682 -0.11703873 0.09743931 -0.95797646 -0.2696553 0.53655225 -0.984106 -0.94451964
0.52368826 0.038722117 -0.386263 -0.362446 -0.41858226 -0.21511927 0.2485308 0.25883284
-0.31751427 0.24760613 0.386318 -0.468236 0.049885873 0.19634528 -0.31239104 -0.06740863
0.5186255 -0.26963127 -0.39165127 -0.23266804 0.4280201 0.1539697 -0.44710463 0.6341997
0.21467754 0.25015447 -0.3927127 -0.28172442 -0.22802654 -1.0754274 -0.9268585 0.25335205
-0.05926346 -0.28346777 -0.18820192 0.2876752 0.31518647 -0.2917566 0.07775422 0.17046207
-0.22115962 0.21924578 -0.34351662 -0.89060485 -0.8762273 -0.5122231 -0.14711174 0.9129953
00000000: 7a08 8e3e 4541 a73e 369f 4bbf 79c1 ec3e
00000010: a654 123e f695 08be 1396 603d 72e0 0cbd
00000020: 6663 5d3f 1493 293f 40e6 fc3e 3603 cabd
00000030: 5073 0dbb 7d97 0b3d 2352 553f 9cf6 f53d
00000040: 436c b73c 6794 f8bc b787 86bf 47fb 42be
00000050: 8f8a 1d3e f4ec 48be 2168 013e 0385 67be
00000060: ca18 0e3f 831b e83e f42e 38bd c9fe 88be
00000070: 95e7 6ebf 10b6 97be 6fca 32be e077 de3e
00000080: bce9 c33c a534 79bf 5981 363e 3fd0 d4be
00000090: a159 81bf 2a57 b2bd 9319 a23e 00b8 d43e
000000a0: d305 84be 179b 2bbd 9efc 903d 13d3 e5bd
000000b0: 2b29 aebe 5a6c 2bbe 9a9c b5bd bba0 a8be
000000c0: fb33 573e fc57 36be a4c7 b0be d75a 903e
000000d0: daf3 f53d 0f10 aabe 270f b7be fa45 e2be
000000e0: 34fe ac3c 99b2 98be 40d2 59be e68a 82bf
000000f0: 7266 5bbf de8d 173f efdf 48bd c654 c9be
00000100: 057a d03e 69bd 03be 712f 43be 48d9 333e
00000110: 76c6 d83e 2093 77bf 9473 97be fa7c 453e
00000120: 70ef 7fbe 00b2 efbd 438e c73d f23d 75bf
00000130: 4210 8abe 7d5b 093f 5fee 7bbf 0acc 71bf
00000140: 6f10 063f 159b 1e3d 44c4 c5be 8692 b9be
00000150: 6a50 d6be 3a48 5cbe dc7e 7e3e bd85 843e
00000160: 3b91 a2be 768c 7d3e 79cb c53e a1bc efbe
00000170: 2155 4c3d bd0e 493e b8f1 9fbe 890d 8abd
00000180: a4c4 043f 1c0d 8abe 8486 c8be 8840 6ebe
00000190: 7325 db3e 3caa 1d3e e6ea e4be e95a 223f
000001a0: 6ed4 5b3e 3f14 803e a411 c9be 2f3e 90be
000001b0: ca7f 69be 9ba7 89bf 9946 6dbf 5cb7 813e
000001c0: 3ebe 72bd b022 91be 01b8 40be 2a4a 933e
000001d0: 1f60 a13e 1f61 95be 9b3d 9f3d 9c8d 2e3e
000001e0: ab77 62be f781 603e 69e1 afbe aefe 63bf
000001f0: 6f50 60bf 0e21 03bf 76a4 16be 0fba 693f

output.weight f4 [1, 128]
0.0758894 0.06767902 -0.2297687 0.043540817 0.048761614 -0.09813715 0.05149104 0.05009659
0.13407177 0.09698934 0.063699454 0.08135571 0.04806956 0.047308236 0.24212024 -0.08994225
0.14431131 -0.0811977 -0.33198595 -0.15644434 0.08730219 -0.07323565 0.046182092 -0.21167322
0.053895745 0.07183355 -0.06312895 -0.048139036 -0.29786852 -0.12943347 0.073566444 0.050235283
-0.083613835 -0.32511762 0.084682696 -0.06797676 -0.3282875 -0.028539022 0.04487419 0.11842237
-0.09983074 -0.068407774 0.045109026 -0.09297735 -0.10112525 0.1220548 -0.09437763 -0.15294047
-0.074504435 -0.13676967 -0.04917588 0.032781165 0.057041626 -0.05372343 -0.06959496 -0.13097392
0.070641674 -0.09464736 -0.123719245 -0.31713986 -0.26495984 0.055949837 -0.07517298 -0.046233494
0.080653444 0.037983723 -0.12944348 0.037987195 0.10717712 -0.34387603 -0.04806564 0.0921357
-0.11439874 -0.047286764 0.15653317 -0.2812412 -0.07904735 0.07728693 -0.31824547 -0.3281934
0.060551357 0.09890267 -0.107222505 -0.08671387 -0.07048404 -0.09748363 0.09128548 0.083407395
0.08268373 0.03540971 0.08998163 -0.18008879 0.06289434 -0.090912394 -0.029086657 0.14671986
0.09321402 -0.08625236 -0.054836757 -0.0742339 0.047071666 0.088543445 -0.24560137 0.13934554
0.06822917 0.06832146 -0.14737391 -0.068472646 -0.1667517 -0.35120863 -0.30735922 0.070529915
-0.28005555 -0.18912405 -0.16264012 0.08927439 0.04296536 -0.037398595 0.032908045 0.060617097
-0.11589492 0.08166563 -0.09013476 -0.2683145 -0.23982023 -0.076965526 -0.05818799 0.16121858
00000000: e76b 9b3d 4c9b 8a3d 7c48 6bbe db57 323d
00000010: 42ba 473d 21fc c8bd 45e8 523d 1532 4d3d
00000020: 1c4a 093e 59a2 c63d dc74 823d d39d a63d
00000030: 96e4 443d 48c6 413d 5eee 773e a433 b8bd
00000040: 58c6 133e fb4a a6bd 10fa a9be f232 20be
00000050: 7ecb b23d 93fc 95bd 6f29 3d3d ddc0 58be
00000060: c9c1 5c3d 781d 933d c049 81bd 702d 45bd
00000070: 3982 98be 358a 04be 01aa 963d 83c3 4d3d
00000080: bb3d abbd d175 a6be 1f6e ad3d 6637 8bbd
00000090: 4d15 a8be abca e9bc 00ce 373d 6d87 f23d
000000a0: 0f74 ccbd 6019 8cbd 3ec4 383d e96a bebd
000000b0: c11a cfbd def7 f93d 0f49 c1bd 6d9c 1cbe
000000c0: c895 98bd 590d 0cbe a66c 49bd 8b45 063d
000000d0: 7ba4 693d 190d 5cbd cd87 8ebd 071e 06be
000000e0: 95ac 903d 7ad6 c1bd 8460 fdbd 2860 a2be
000000f0: d1a8 87be a82b 653d 4bf4 99bd 555f 3dbd
00000100: a22d a53d d294 1b3d d58c 04be 7698 1b3d
00000110: ae7f db3d 8510 b0be 7ae0 44bd a4b1 bc3d
00000120: e349 eabd c4af 41bd 3b4a 203e d9fe 8fbe
00000130: 94e3 a1bd 9c48 9e3d 12f1 a2be f708 a8be
00000140: b304 783d 7c8d ca3d 7997 dbbd 0b97 b1bd
00000150: f059 90bd 7fa5 c7bd e2f3 ba3d 7fd1 aa3d
00000160: 1656 a93d c609 113d 4a48 b83d 3269 38be
00000170: bfce 803d 4730 babd 2447 eebc bb3d 163e
00000180: fee6 be3d 14a5 b0bd 829c 60bd f107 98bd
00000190: 38ce 403d 4456 b53d ed7e 7bbe 99b0 0e3e
000001a0: bcbb 8b3d 1fec 8b3d 30e9 16be 633b 8cbd
000001b0: f5c0 2abe 9ed1 b3be 305e 9dbe fd71 903d
000001c0: 7163 8fbe bca9 41be 228b 26be 7ed5 b63d
000001d0: 72fc 2f3d 452f 19bd 96ca 063d a249 783d
000001e0: 515a edbd 4f40 a73d 9398 b8bd 8560 89be
000001f0: 6f93 75be 1aa0 9dbd 8856 6ebd 7c16 253e
