p3_collab-compet/weights/agent2_checkpoint_critic.pth (torch_old, 164607 bytes, 5 tensors)

fc1.weight f4 [200, 52]
0	0xbc1aab47	-0.00944025
1	0x3ebad231	0.36488488
2	0x3d62f218	0.05540666
3	0x3d88c8c1	0.06678916
4	0x3dc77276	0.097386286
5	0xbd6bbc1f	-0.057552453
6	0xbd53e59d	-0.05173265
7	0x3d8790a4	0.06619385
8	0x3d903754	0.07041803
9	0x3f17f4d0	0.5935793
10	0xbc5dde5f	-0.013541787
11	0xbdbbff55	-0.0917956
12	0xbdbbd5d7	-0.09171646
13	0xbf0085c5	-0.50204116
14	0xbc44a726	-0.012002742
15	0xbdb027ea	-0.08601363
16	0xbd92e1b3	-0.07171955
17	0x3ee5c0cb	0.44873652
18	0xbcd9d82f	-0.026592342
19	0xbefd5b23	-0.49483594
20	0xbace7b23	-0.001575325
21	0xbdd8e61f	-0.10590767
22	0xbd1a4a44	-0.03766848
23	0xbf0b0415	-0.54303104
24	0xbcef31db	-0.029198578
25	0x3ee54c0d	0.44784585
26	0xbcddf08c	-0.02709224
27	0x3e3537f2	0.17697123
28	0xbca7589b	-0.020427993
29	0xbe202203	-0.15637974
30	0xbcf13499	-0.029444026
31	0x3e074cfa	0.13212958
32	0xbaa933a7	-0.001290907
33	0x3ed8db38	0.4235475
34	0xbbad2ea7	-0.0052851024
35	0x3d838c6e	0.06423269
36	0x3c2ef1e4	0.010677788
37	0xbed94e59	-0.42442587
38	0xbc86d503	-0.016458994
39	0x3cbba070	0.022903651
40	0xbdc0bf66	-0.09411506
41	0x3e82a36d	0.2551531
42	0x3b24b48e	0.0025132033
43	0xbdf1360c	-0.11777887
44	0x3d56d183	0.0524459
45	0xbd93b448	-0.0721212
46	0x3d45fe47	0.0483382
47	0xbde00b80	-0.109396935
48	0xbf9fd24f	-1.2486056
49	0xbbe9b6e7	-0.0071323994
50	0x3f44d6a0	0.7688999
51	0x3d8f963e	0.07011078
52	0xbc99e3df	-0.018785415
53	0xbdb31bd8	-0.08745545
54	0xbd2ffe27	-0.042966988
55	0x3d99b339	0.07504887
56	0x3dd569d9	0.104205795
57	0xbbd1ef2d	-0.006406686
58	0x3cdcca26	0.02695186
59	0x3cf9ce0d	0.03049376
60	0x3cfff29c	0.031243615
61	0xbdcb7f31	-0.09936369
62	0xbd441e84	-0.047880664
63	0xbb9ec5c5	-0.0048453533
64	0x3e41bd3d	0.18919845
65	0xbd3b9417	-0.045795526
66	0x3d68485e	0.05670964
67	0x3ca40553	0.02002207
68	0x3e303449	0.17207445
69	0xbe107220	-0.14106035
70	0xbcd04744	-0.025424607
71	0xbe5d4f6d	-0.2161233
72	0x3e83751c	0.25675285
73	0xbe184145	-0.14868648
74	0xbba766af	-0.0051086764
75	0xbe592afb	-0.21207802
76	0x3ec58eea	0.38585597
77	0x3d955e40	0.072933674
78	0x3d39b06a	0.045334257
79	0xbd0ab162	-0.03386057
80	0xbdb5faaf	-0.08885705
81	0x3dca071a	0.09864636
82	0x3d0a23fc	0.033725724
83	0xbcc69cc2	-0.02424467
84	0x3ea9ee1d	0.3318948
85	0x3cff4ae0	0.031163633
86	0x3d483d2b	0.04888646
87	0x3de14634	0.10999718
88	0xbdf80c72	-0.12111749
89	0xbcc95ef6	-0.024581414
90	0x3cd31b34	0.025769807
91	0x3dfffdba	0.124995664
92	0x3f0f9ed3	0.5610172
93	0x3e8c401e	0.27392668
94	0x3d4c458e	0.04987102
95	0x3ebdaad5	0.37044397
96	0xbeb3066a	-0.3496583
97	0xbdbd3cc8	-0.09240109
98	0x3df28c86	0.11843209
99	0x3eb8a155	0.36060587
100	0x3e18f2b0	0.14936328
101	0x3e33d43e	0.17561433
102	0x3f889a7e	1.0672147
103	0xbdc25f93	-0.094908856
104	0x3ded0bd4	0.11574522
105	0x3f5b08fc	0.85560584
106	0x399c383d	0.0002979654
107	0x3dbad280	0.09122181
108	0x3dbb7024	0.091522485
109	0x3d512c2d	0.05106752
110	0xbd9f262b	-0.07770952
111	0x3d20fda4	0.03930439
112	0x3de2c1a3	0.110720895
113	0x3f3c50ec	0.73560977
114	0xbd25d564	-0.04048671
115	0xbe36957c	-0.17830461
116	0x3d27562c	0.040853664
117	0xbe3954f0	-0.18098807
118	0x3d882168	0.06646997
119	0xbe8becf2	-0.27329212
120	0x3e0362cd	0.12830658
121	0x3f35d1f0	0.71023464
122	0xbd263743	-0.040580045
123	0xbdfc1b29	-0.12309868
124	0xbd80af24	-0.062834054
125	0xbf0c544f	-0.54816145
126	0xbd493d4d	-0.049130727
127	0xbd5b437d	-0.05353116
128	0x3e5e9771	0.21737458
129	0x3efc5526	0.49283713
130	0x3d2ef0b6	0.04271003
131	0xbe230155	-0.15918477
132	0xbcabdf79	-0.020980584
133	0x3d9d5e79	0.07684035
134	0x3cbb7573	0.022883153
135	0xbe500b55	-0.20316823
136	0x3e68cb46	0.22733793
137	0x3f35dfaf	0.7104444
138	0xbe72a22b	-0.23694675
139	0x3e3fff28	0.18749678
140	0xbd8cd672	-0.0687684
141	0xbe0f399d	-0.13986821
142	0xbe5ab57e	-0.21358296
143	0x3decc564	0.11561087
144	0x3e5e970e	0.2173731
145	0x3f46d2e7	0.7766556
146	0xbce132dd	-0.027490074
147	0xbd254209	-0.04034618
148	0x3c6bf3d6	0.014401397
149	0xbf1e3ff3	-0.6181633
150	0xbc820b9e	-0.01587468
151	0xbdd59a99	-0.10429878
152	0x3e808ede	0.25109
153	0xbc84babf	-0.016202329
154	0x3f8d73b5	1.1050936
155	0x3e7d1fd4	0.24719173
156	0x3d810cc7	0.06301265
157	0x3e9d7b7f	0.30758283
158	0xbd1d7a93	-0.038446974
159	0x3bb3fc50	0.0054927245
160	0xbd237bc2	-0.039912947
161	0x3d2c06e0	0.041998744
162	0x3d6ca125	0.057770867
163	0xbc370709	-0.011171111
164	0xbcf4508f	-0.02982357
165	0x3ed39043	0.41321
166	0x3d414424	0.047184125
167	0xbdf6aef2	-0.12045087
168	0xbe03d930	-0.12875819
169	0xbeb0fe00	-0.34568787
170	0x3d0681bd	0.03283857
171	0xbdddbb98	-0.10826796
172	0xbd973ff4	-0.07385245
173	0x3ec0e706	0.37676257
174	0xbce7450e	-0.02823117
175	0xbd4c1043	-0.049820196
176	0xbcc884d9	-0.02447741
177	0xbfaa3c6e	-1.3299692
178	0xbc25a8d2	-0.010111051
179	0xbda21ed1	-0.07916034
180	0xbd8ab008	-0.067718565
181	0x3ea5a062	0.32348925
182	0x3d829ebf	0.06377935
183	0x3ddb73b9	0.10715432
184	0x3d020812	0.031745978
185	0x3e02d70b	0.12777345
186	0x3d486ea6	0.048933648
187	0x3deac8e6	0.114640996
188	0xbde83316	-0.11337869
189	0x3e5a8aad	0.21341963
190	0x3ba08493	0.0048986166
191	0x3dc55e4a	0.09637125
192	0x3c81d326	0.015847754
193	0xbec0bd9a	-0.37644655
194	0xbc7b622b	-0.015343229
195	0x3e0fe59d	0.14052434
196	0xbe4d8210	-0.20069146
197	0x3e87104e	0.26379627
198	0xbcf00369	-0.029298501
199	0xbdd99bc6	-0.106254146
200	0x3dbd375d	0.09239075
201	0xbfa12d3c	-1.259193
202	0x3d66c261	0.056337718
203	0xbd996b72	-0.07491197
204	0x3f5ff986	0.8749012
205	0x3dfb5a51	0.12273086
206	0xbf10c8b3	-0.5655624
207	0xbe1e5697	-0.15462719
208	0xbe76ed77	-0.24114023
209	0xbc8b9f53	-0.017043745
210	0xbbbca05d	-0.0057564215
211	0x3cb5544a	0.022134919
212	0x3c17e3ec	0.009270649
213	0x3dbad331	0.09122313
214	0xbd0f8cf5	-0.035046536
215	0x3db0cca9	0.08632786
216	0xbdc5e47f	-0.09662723
217	0x3dde346f	0.10849845
218	0xbd2acd77	-0.041699853
219	0x3dde4c02	0.10854341
220	0x3dada666	0.084790036
221	0xbdd5e23a	-0.1044354
222	0x3bb03029	0.005376835
223	0x3e00b65e	0.12569568
224	0xbd39a66f	-0.04532474
225	0x3e0e3041	0.13885595
226	0x3e0b6660	0.13613272
227	0xbe12e0bc	-0.14343542
228	0x3d99b0b9	0.0750441
229	0xbe131276	-0.14362511
230	0x3d4f52e5	0.050616164
231	0xbe3f0d28	-0.18657362
232	0x3f15cc9b	0.5851533
233	0xbecb2899	-0.3967941
234	0xbc87b91d	-0.016567761
235	0x3dd480fc	0.10376164
236	0xbdb0f041	-0.08639575
237	0x3defcfa6	0.11709528
238	0x3c2690e4	0.010166381
239	0x3d966ab4	0.07344571
240	0x3f1bd854	0.60876966
241	0xbebf402d	-0.3735365
242	0xbd430a89	-0.04761747
243	0xbd4ae731	-0.049536888
244	0xbcc0a138	-0.023514375
245	0xbd551aa9	-0.05202738
246	0xbc80afaa	-0.015708763
247	0xbdc29197	-0.09500425
248	0x3f106707	0.5640721
249	0xbefacc58	-0.48984027
250	0xbda785b5	-0.081797995
251	0xbe7c96ad	-0.24666853
252	0xbd7c9f6d	-0.061675478
253	0xbe286f9a	-0.16448823
254	0xbd3215b0	-0.043477714
255	0xbe8a97ac	-0.2706884

fc1.bias f4 [200]
0	0xbe2f5371	-0.17121674
1	0xbeb4c269	-0.35304573
2	0xbd612be2	-0.05497349
3	0x3f17ea10	0.59341526
4	0xbd74420b	-0.059633296
5	0xbf064106	-0.5244297
6	0xbea527b2	-0.32256848
7	0x3e67655d	0.22597261
8	0xbe113710	-0.14181161
9	0xbe36fd39	-0.17870034
10	0xbe1cfdf2	-0.15331247
11	0x3df0b49e	0.117532
12	0xbe1a367b	-0.15059845
13	0xbe8a8efb	-0.2706221
14	0x3ac00006	0.0014648444
15	0xbeba1108	-0.3634112
16	0xbec29ad6	-0.38008755
17	0x3d8851fb	0.066562615
18	0xbe34552c	-0.17610615
19	0xbecbf5c8	-0.39835954
20	0x3e6e4e48	0.2327205
21	0xbddc5a3c	-0.10759398
22	0x3cd3d78f	0.025859622
23	0xbe00aea0	-0.12566614
24	0xbd49f801	-0.04930878
25	0xbef0f1ab	-0.47059378
26	0xbdf79c43	-0.120903514
27	0x3ecf60c8	0.40503526
28	0xbe945698	-0.28972316
29	0xbe97fe73	-0.29686317
30	0x3e34b02c	0.17645329
31	0xbed4b244	-0.41542256
32	0xbebcc97f	-0.3687248
33	0xbe31e9eb	-0.17374389
34	0xbed26033	-0.4108902
35	0xbe3f0e1c	-0.18657726
36	0xbcf7aab9	-0.030232774
37	0xbe3a0e60	-0.18169546
38	0xbe4ff5bb	-0.20308582
39	0xbebd5510	-0.3697896
40	0xbeb09677	-0.34489796
41	0x3e248ea9	0.16070046
42	0x3dabaed4	0.08382955
43	0xbe57203c	-0.2100839
44	0xbf168926	-0.5880302
45	0xbf23292d	-0.63734704
46	0xbee18356	-0.44045514
47	0xbefe2d3b	-0.49643883
48	0xbdc86c90	-0.09786332
49	0xbe6fad32	-0.23405913
50	0x3d0ef3d7	0.034900513
51	0xbd38ab7d	-0.04508542
52	0xbe4597fc	-0.19296259
53	0xbb0f43a3	-0.0021860383
54	0xbf341360	-0.70342064
55	0xbe9611cf	-0.29310462
56	0xbecda0ff	-0.40161893
57	0xbe336940	-0.17520618
58	0xbdcc0355	-0.09961573
59	0xbd7e063d	-0.062017668
60	0xbd4f2ac5	-0.050577898
61	0xbe321cbb	-0.17393772
62	0xbeaeefd5	-0.34167352
63	0x3e950b2c	0.29110086
64	0x3d9a025b	0.075199805
65	0xbe46f1cb	-0.19428174
66	0xbea74867	-0.32672426
67	0xbd925abf	-0.07146215
68	0xbeb0e4f0	-0.34549665
69	0xbdb1242f	-0.086494796
70	0xbea4d594	-0.32194197
71	0xbe0e45f1	-0.13893868
72	0xbebdf58e	-0.37101406
73	0xbe649bf8	-0.22325122
74	0xbd25623e	-0.040376894
75	0xbec31337	-0.38100597
76	0xbee13740	-0.43987465
77	0xbd2ae07b	-0.041717988
78	0xbee2ca4e	-0.4429497
79	0xbe88fe32	-0.26756436
80	0xbf50a5d4	-0.81503034
81	0xbdf558cf	-0.119798295
82	0xbda2debf	-0.07952642
83	0xbe8a5ab9	-0.2702234
84	0xbd0d8ae8	-0.0345563
85	0x3c1ad7b1	0.009450839
86	0xbd8de415	-0.06928269
87	0xbf131e82	-0.57468426
88	0x3ebfb2b2	0.3744102
89	0xbe5367b5	-0.2064503
90	0xbe2af460	-0.16694784
91	0xbe71aa9f	-0.23600243
92	0x3e0cf990	0.13767076
93	0xbec91dff	-0.39280698
94	0xbe0bbd0c	-0.13646334
95	0xbe95d5f2	-0.2926479
96	0xbee5050f	-0.44730422
97	0xbd26fb7b	-0.040767174
98	0xbeb86ba4	-0.36019623
99	0xbef74e40	-0.48301888
100	0xbe207867	-0.1567093
101	0xbebab603	-0.3646699
102	0xbe9e6f19	-0.30944136
103	0xbe8501f6	-0.2597806
104	0xbe229207	-0.15876018
105	0xbf0608a0	-0.5235691
106	0xbdfaedb8	-0.122523725
107	0xbed94449	-0.4243491
108	0x3e0eb937	0.13937841
109	0xbe2d7e6f	-0.16942762
110	0xbd4cfcfc	-0.050045952
111	0xbda7d221	-0.08194376
112	0xbe0529f9	-0.13004293
113	0xbecd315f	-0.4007673
114	0xbcd50130	-0.026001543
115	0xbea58127	-0.32325098
116	0x3e87f527	0.26554224
117	0x3e0e8bd8	0.13920534
118	0xbe8ecc28	-0.27890134
119	0xbf01e00d	-0.507325
120	0xbe44fb5a	-0.19236508
121	0xbdda9a70	-0.10673988
122	0xbdd47723	-0.10374286
123	0x3ee6680b	0.45001253
124	0xbf091268	-0.5354371
125	0xbd08aab9	-0.03336594
126	0xbe305667	-0.1722046
127	0xbe165c78	-0.14683712
128	0xbe13226e	-0.14368603
129	0x3da3301d	0.07968161
130	0x3e48d160	0.1961112
131	0x3cf9a5b5	0.030474523
132	0xbdccfc8e	-0.100091085
133	0xbeb44396	-0.35207814
134	0xbe4dbff6	-0.20092759
135	0x3cfe8824	0.031070776
136	0xbee1322b	-0.43983588
137	0xbd297be5	-0.04137792
138	0xbdc16e36	-0.09444849
139	0xbcdd4d27	-0.027014328
140	0xbef43a67	-0.47700807
141	0xbebfa884	-0.37433255
142	0xbe1d0665	-0.1533447
143	0xbdec33e8	-0.11533338
144	0xbf16a702	-0.58848584
145	0xbe3aaa32	-0.18228987
146	0xbe4299b2	-0.19003943
147	0xbee1c220	-0.44093418
148	0xbc2c9e31	-0.010535763
149	0xbec2d41a	-0.38052446
150	0xbe93587b	-0.28778443
151	0xbd2c3beb	-0.04204933
152	0xbeeb27f8	-0.4592893
153	0xbe2a44d7	-0.16627823
154	0xbec1a09c	-0.37817848
155	0xbead9754	-0.33904517
156	0xbeac8df2	-0.33702046
157	0xbe21b7a9	-0.15792717
158	0xbe13bbd7	-0.14427124
159	0xbd0d928d	-0.03456359
160	0x3da135ce	0.078715906
161	0xbeecc55d	-0.46244326
162	0x3e6c0715	0.23049577
163	0xbd596797	-0.053077307
164	0xbe4d1c73	-0.20030384
165	0xbc8ae270	-0.016953677
166	0xbe140a7c	-0.14457124
167	0xbd1b6c3b	-0.037945013
168	0xbd706dbf	-0.058698412
169	0xbd820e63	-0.063504
170	0xbde27856	-0.110581085
171	0x3ea087f6	0.3135373
172	0xbe77bdc8	-0.2419349
173	0xbdb3d63b	-0.087810956
174	0xbd1834c0	-0.03715968
175	0xbd71978e	-0.058982424
176	0xbd22f5cf	-0.039785203
177	0x3adc8671	0.0016824735
178	0xbe9c74e1	-0.30557922
179	0xbec941b1	-0.3930793
180	0x3f351f59	0.7075096
181	0xbe9bc31e	-0.304223
182	0xbe4eb7a1	-0.20187236
183	0xbebd3363	-0.36953267
184	0xbde2e8ac	-0.11079535
185	0x3ba96eb5	0.005170668
186	0xbef5334b	-0.47890696
187	0xbe571d84	-0.21007353
188	0xbd994569	-0.07483942
189	0x3c548c21	0.012972862
190	0xbe8d7403	-0.27627572
191	0xbe494c25	-0.19657953
192	0xbed8c17b	-0.42335114
193	0x3e57fd72	0.21092775
194	0xbeb5664e	-0.35429615
195	0x3d73b5dd	0.05949961
196	0xbdc4c5ca	-0.09608038
197	0xbe9de4d7	-0.30838653
198	0x3e91e7eb	0.28497252
199	0x3e4dfd5f	0.20116185

fc2.weight f4 [150, 200]
0	0xbb8f10ab	-0.0043660006
1	0xbdb44ec9	-0.088040896
2	0xbd05cea9	-0.03266779
3	0xbde7c909	-0.11317641
4	0xbd23cbcd	-0.03998928
5	0xbcdd7e77	-0.027037842
6	0x3c8e66fc	0.017383091
7	0x3bd5741f	0.006514087
8	0xbd9baa2e	-0.076008186
9	0xbd54969e	-0.051901452
10	0x3d1f6493	0.038914274
11	0xbcf6b1e1	-0.030114116
12	0xbd681c59	-0.05666766
13	0xbe0f9cf6	-0.1402472
14	0xbc393baa	-0.011305729
15	0xbdef4e13	-0.11684813
16	0xbd580f9e	-0.05274927
17	0xbd6a4c92	-0.05720193
18	0x3b179f8c	0.0023135869
19	0xbd0d0181	-0.034425262
20	0x3ce6c85c	0.02817171
21	0xbd83a78a	-0.0642844
22	0x3d018aa0	0.031626344
23	0xbde78b0b	-0.11305817
24	0x3d132de5	0.03593244
25	0x3d2e3e33	0.042539787
26	0xbd0b564b	-0.034017842
27	0x3c8d863a	0.017275918
28	0xbdc5ce45	-0.096584834
29	0xbcc8090c	-0.024418376
30	0x3d61faa6	0.055170678
31	0xba74dfbf	-0.0009341202
32	0xbd848790	-0.06471169
33	0x3da3c6f2	0.0799693
34	0xbe6ab8ef	-0.22922109
35	0xbe101dab	-0.14073817
36	0x3e0cb4dc	0.13740867
37	0xbdf892dc	-0.12137386
38	0xbd0820f8	-0.033234566
39	0xbd5aba14	-0.053400114
40	0xbd4a50e7	-0.04939356
41	0xbb2294a5	-0.0024807837
42	0xbd95183e	-0.072800145
43	0xbde6ca15	-0.11269013
44	0xbc159b7d	-0.00913131
45	0xbd16794f	-0.036736783
46	0xbe28d293	-0.16486578
47	0xbd5fc93a	-0.054635264
48	0xbe3646b6	-0.17800412
49	0xbd578840	-0.052620173
50	0xbe846234	-0.25856173
51	0xbdf9bc3f	-0.12194108
52	0xbd25bd97	-0.04046401
53	0xbcad1cc2	-0.021131877
54	0xbda69e6f	-0.081356876
55	0x3ce38e95	0.02777795
56	0xbe0535d9	-0.13008823
57	0xbd36c641	-0.044622663
58	0xbd198bbd	-0.03748678
59	0xbc9c6746	-0.019092213
60	0xbe897f4f	-0.2685494
61	0x3bd9a476	0.0066419197
62	0x3d8b550d	0.068033315
63	0x3d5dc449	0.05414227
64	0xb9379cdd	-0.00017510676
65	0xbcc4caac	-0.024022423
66	0x3da6f3ba	0.08151956
67	0xbd885459	-0.06656713
68	0xbcfa72ea	-0.030572373
69	0x3cf7e612	0.030261073
70	0xbdae931a	-0.08524151
71	0xbe0e43b6	-0.13893017
72	0xbc9a0303	-0.018800264
73	0x3d767525	0.06017031
74	0xbdcc935a	-0.099890426
75	0x3cf9c952	0.030491505
76	0xbc908f69	-0.017646508
77	0x3c229ac1	0.0099245915
78	0xbe17e3dc	-0.14833015
79	0x3c804765	0.015659044
80	0x3d8c436f	0.068487994
81	0x3ceb7eb8	0.028746948
82	0xbe1c98d0	-0.15292668
83	0xbcb36012	-0.021896396
84	0xbdaabdbe	-0.08336972
85	0xbd8264ea	-0.06366904
86	0xbb93decf	-0.004512645
87	0xbc9e1198	-0.019295499
88	0x3d6bcc0b	0.057567637
89	0xbd9dd558	-0.07706708
90	0x3d85738e	0.06516181
91	0xbdd3d31f	-0.103430025
92	0x3c8409dd	0.016117984
93	0x3c4c7a65	0.012480353
94	0x3d40e935	0.047097404
95	0xbd59e644	-0.053198114
96	0xbdb5ce3c	-0.08877227
97	0xbd1af27c	-0.037828907
98	0xbd4f4553	-0.050603222
99	0xbc9a939b	-0.018869212
100	0xbb1d208b	-0.0023975696
101	0xbdb67a66	-0.089100644
102	0xbe079866	-0.13241729
103	0x3c82a6ec	0.015948735
104	0x3dbcc910	0.09218037
105	0xbd90ad90	-0.070643544
106	0x3dea2b77	0.114340715
107	0xbdd20034	-0.10253945
108	0x3c5daecd	0.013530445
109	0x3d332826	0.04373946
110	0xbd967595	-0.07346646
111	0xbd9583e1	-0.073005445
112	0xbdcbf342	-0.09958507
113	0xbe13768c	-0.14400691
114	0x3c8b4ff6	0.017005902
115	0xbc12aa37	-0.008951715
116	0x3d2ff246	0.04295566
117	0x3cce23fa	0.02516364
118	0xbce1e4e2	-0.02757496
119	0xbd209cba	-0.039211966
120	0x3c8e8c9c	0.017401032
121	0x3cd93f7b	0.026519528
122	0xbdf497fb	-0.119430505
123	0xbd96c447	-0.07361656
124	0xbe03c929	-0.12869705
125	0x3d6e5da2	0.058194764
126	0xbdc421c1	-0.095767505
127	0xbd52005e	-0.05126988
128	0xbc701ca9	-0.014655271
129	0xbd800349	-0.062506266
130	0x3c20ce8e	0.0098148715
131	0xbbc2ebaf	-0.005948506
132	0x3d128531	0.035771552
133	0x3d19c8e6	0.037545107
134	0xbd1b050d	-0.037846614
135	0x3c803a4e	0.015652802
136	0x3d2ee7e0	0.042701602
137	0xbdb5fc9c	-0.08886072
138	0x3d496fc3	0.04917885
139	0xbdcdb247	-0.10043769
140	0xbc0910ca	-0.008365819
141	0x3ddc938b	0.10770329
142	0xbe0cbba6	-0.13743457
143	0xbe76fbca	-0.24119487
144	0xbddf0e59	-0.108914085
145	0xbd804857	-0.06263798
146	0xbdbf4dd3	-0.09341016
147	0x3cde8b36	0.02716599
148	0xbcd18f90	-0.025581151
149	0x3d5071d7	0.050889816
150	0xbd349766	-0.044089697
151	0xbd0c15f8	-0.03420064
152	0xbcfbff92	-0.030761514
153	0x3c965de4	0.018355317
154	0x3c3d1a6d	0.011541945
155	0xbdedd8d4	-0.11613622
156	0x3cc0d51c	0.023539118
157	0x3d69b52f	0.057057556
158	0x3c48120b	0.012211333
159	0xbca6af5d	-0.020347292
160	0xbae1c081	-0.0017223508
161	0xbdbfb4ba	-0.09360643
162	0x3d47447f	0.048649307
163	0xbd615853	-0.055015873
164	0x3d4e25f0	0.05032915
165	0xbd94c06e	-0.072632656
166	0xbd8f278e	-0.06989966
167	0xbd92772a	-0.07151635
168	0xbdc7e89f	-0.09761166
169	0xbd18cbaf	-0.037303623
170	0xbb6d87e8	-0.0036244337
171	0xbe181ab7	-0.14853941
172	0xbcf8fae9	-0.03039308
173	0xbd836a4b	-0.06416758
174	0xbda1d8f1	-0.079027064
175	0xbdf08d6a	-0.117457226
176	0x3acab7e6	0.0015466183
177	0xbdb60365	-0.08887366
178	0xbd135b75	-0.035975892
179	0xbd58a971	-0.052895967
180	0xbd40f119	-0.04710493
181	0xbaaa4e55	-0.0012993315
182	0x3cd8bd3c	0.026457421
183	0xbe130427	-0.14357053
184	0xbdc1f744	-0.0947099
185	0xbda3fce1	-0.08007217
186	0xbe07552b	-0.13216083
187	0xbb7451de	-0.0037280242
188	0xbdc73b5c	-0.09728119
189	0xbdaeb3a7	-0.0853036
190	0xbd821dfa	-0.06353374
191	0xbd8e9cd1	-0.06963504
192	0xbcc97395	-0.024591247
193	0x3cce0f87	0.025153888
194	0xbc7af635	-0.015317489
195	0xbc1341d0	-0.008987859
196	0x3d653b4c	0.055964753
197	0x3bd071c1	0.006361217
198	0x3cda185c	0.026622944
199	0xbd3b9491	-0.04579598
200	0xbe5078b5	-0.20358546
201	0x3df9399a	0.1216919
202	0xbdfaca75	-0.12245647
203	0xbc883190	-0.016625196
204	0xbd3d96ae	-0.046286277
205	0xbe30a4f9	-0.17250432
206	0x3bd873df	0.00660561
207	0xbe4f8a15	-0.20267518
208	0x3da75aa5	0.08171586
209	0xbde37534	-0.11106339
210	0x3b48471b	0.003055996
211	0xbe980c6e	-0.29696983
212	0xbcc30ec7	-0.023810757
213	0x3dc8b2b1	0.09799708
214	0xbe6d5415	-0.23176606
215	0xbe60f777	-0.219694
216	0xbe9deb03	-0.30843362
217	0xbdb7fa55	-0.08983294
218	0xbb6834b4	-0.0035431804
219	0x3e322883	0.17398266
220	0xbe164dfd	-0.14678188
221	0x3e40c4a2	0.1882501
222	0xbe809cf6	-0.25119752
223	0xbe372601	-0.17885591
224	0x3cb7031a	0.022340346
225	0xbe74d345	-0.23908718
226	0xbddef9c1	-0.108874805
227	0xbded63bd	-0.11591289
228	0xbe7f657b	-0.24941055
229	0xbe7a7632	-0.2445915
230	0xbd7fd448	-0.062458307
231	0xbe17b2dd	-0.14814325
232	0xbe434ab2	-0.19071463
233	0xbdfb702c	-0.122772545
234	0xbf2fbd32	-0.68648064
235	0xbdd191e1	-0.10232902
236	0x3e70b2f1	0.2350576
237	0x3d8f8a43	0.07008793
238	0xbdef8aeb	-0.116964184
239	0xbcc47d00	-0.023985386
240	0x3e18954d	0.14900704
241	0x3d6a331b	0.057177644
242	0x3e8f87ba	0.2803324
243	0xbd421903	-0.047387134
244	0xbe3d1f04	-0.18468863
245	0xbd495356	-0.04915174
246	0x3c1d786d	0.009611231
247	0x3cfbabe5	0.030721614
248	0xb8d1bb22	-0.00010000753
249	0xbe42d805	-0.19027717
250	0xbe470cdb	-0.19438498
251	0xbdcaa56e	-0.098948345
252	0xbd9b1560	-0.07572436
253	0x3d94f469	0.0727318
254	0xbe1f81e3	-0.15576892
255	0x3e675c3d	0.2259378

fc2.bias f4 [150]
0	0xbe0a282f	-0.13491891
1	0x3e01b971	0.12668397
2	0xbde24c17	-0.11049669
3	0xbd9eaebc	-0.07748172
4	0xbd668003	-0.056274425
5	0x3cda5ba1	0.02665502
6	0x3dad6701	0.08466912
7	0x3eaeab20	0.34114933
8	0xbd609f16	-0.054839216
9	0x3dc176b9	0.09446473
10	0xbd714416	-0.058902822
11	0x3ea0753b	0.3133944
12	0xbd01c497	-0.031681623
13	0xbc586bd5	-0.013209303
14	0xbdee477a	-0.11634727
15	0x3cc74bb7	0.024328096
16	0xbe1777e4	-0.14791828
17	0xbe1948ec	-0.14969224
18	0xbc87541c	-0.016519599
19	0x3d8ebc43	0.06969502
20	0xbde57ee3	-0.11205842
21	0xbe4c7585	-0.19966705
22	0xbd761747	-0.060080793
23	0x3d1455d4	0.036214665
24	0xbe55a3d7	-0.20863281
25	0xbe1369f5	-0.14395888
26	0xb89e96e0	-7.56213e-05
27	0xbdd0f960	-0.102038145
28	0xbdc1d380	-0.094641685
29	0x3dcb8426	0.09937315
30	0xbdf670c7	-0.12033229
31	0xbd8fc6b0	-0.070203185
32	0xbe31812d	-0.17334433
33	0xbdc5c986	-0.09657578
34	0xbe80cfd6	-0.25158566
35	0xbe06cf7d	-0.13165088
36	0xbc1dcd4b	-0.009631465
37	0xbcd203eb	-0.025636634
38	0x3dfb68da	0.12275858
39	0xbe02819e	-0.12744758
40	0x3e2879b9	0.16452684
41	0xbe17d0d8	-0.14825761
42	0xbe3c0aea	-0.18363538
43	0xbdc8edd6	-0.098109886
44	0xbdafeaf9	-0.08589739
45	0xbd0b1531	-0.033955757
46	0xbdaf226c	-0.08551487
47	0xbe0a8555	-0.13527425
48	0xbdd1819e	-0.10229801
49	0x3d68145b	0.056660037
50	0xbdae3527	-0.08506232
51	0xbd22cd73	-0.039746713
52	0x3edfbc21	0.43698218
53	0x3df219ef	0.11821353
54	0xbe114a29	-0.14188446
55	0xbd9d8b10	-0.0769254
56	0xbd1e9bc3	-0.038722765
57	0xbe043422	-0.12910512
58	0xbde12c32	-0.10994758
59	0xbd04317d	-0.03227376
60	0xbe261761	-0.16219856
61	0xbe391fb0	-0.18078494
62	0x3d3cc11d	0.046082605
63	0xbdde027d	-0.10840318
64	0xbe2353ae	-0.1594989
65	0xbd8089d2	-0.06276287
66	0xbd7a3fe1	-0.061096076
67	0xbc9adb27	-0.018903328
68	0x3e254b66	0.16142043
69	0xbd42f8b3	-0.04760046
70	0x3d2a3b39	0.041560385
71	0xbd882626	-0.06647901
72	0xbedfe97c	-0.43732822
73	0xbe3257c3	-0.17416291
74	0xbe881360	-0.26577282
75	0xbde7e08d	-0.113221265
76	0x3eb909df	0.36140344
77	0x3df4f606	0.11960988
78	0xbe054824	-0.130158
79	0x3e9ca82d	0.30597058
80	0xbe1c584a	-0.15268055
81	0xbe5745cf	-0.21022724
82	0x3e395850	0.18100095
83	0xbd149146	-0.036271356
84	0xbe095109	-0.13409819
85	0x3d0171f9	0.031602833
86	0xbc8cd9f4	-0.017193772
87	0xbd9c9d67	-0.076472096
88	0xbdeff979	-0.11717505
89	0xbd943a96	-0.07237737
90	0xbcf6f813	-0.030147588
91	0xbd9c5249	-0.07632882
92	0x3d82dfe0	0.06390357
93	0x3d9feb57	0.078085594
94	0xbe47b598	-0.19502866
95	0xbe29d0e4	-0.16583592
96	0xbe07bdb9	-0.13255967
97	0xbe053f3a	-0.130124
98	0xbe1d624b	-0.15369527
99	0x3d36014b	0.044434827
100	0x3e06137a	0.13093367
101	0x3baa7a7a	0.0052025886
102	0x3e824331	0.25441888
103	0xbda36bae	-0.07979523
104	0x3e6f2819	0.2335514
105	0xbbd2efb2	-0.0064372653
106	0xbd6e4f98	-0.058181375
107	0xbdd868d8	-0.10566872
108	0xbd3ec5bf	-0.046575304
109	0xbd4dde4e	-0.050260834
110	0xbe0a1db3	-0.13487892
111	0xbe01e469	-0.12684788
112	0xbc96f9a1	-0.01842958
113	0xbe0b52c6	-0.13605794
114	0xbe1b2cc7	-0.151538
115	0xbde19f0b	-0.11016663
116	0xbde6fc2c	-0.11278567
117	0xbd0d2c34	-0.034465984
118	0xbdc55b25	-0.09636525
119	0xbe23733c	-0.15961927
120	0xbe356f8f	-0.17718337
121	0x3b971a5d	0.004611297
122	0xbdaebb74	-0.085318476
123	0x3d0d9212	0.03456313
124	0xbe66f639	-0.22554864
125	0xbcfb38c2	-0.030666713
126	0x3cacd3c7	0.021097077
127	0xbd07795b	-0.033074718
128	0xbdbd3d1d	-0.09240172
129	0xbe04b3d2	-0.12959221
130	0x3daa5b16	0.083181545
131	0x3e935030	0.28772116
132	0xbd9ef3aa	-0.07761319
133	0x3c9ac871	0.018894406
134	0xbda9db91	-0.08293832
135	0xbdba952d	-0.09110484
136	0xbe24156c	-0.16023797
137	0xbdb87900	-0.09007454
138	0xbdc3d906	-0.09562878
139	0xbdb5e71b	-0.088819705
140	0xbdd5067e	-0.10401629
141	0xbd8b005a	-0.067871764
142	0xbd8bef8b	-0.068327986
143	0xbdde2c02	-0.108482376
144	0xbe87ccea	-0.26523525
145	0xbce4ca5b	-0.027928522
146	0x3f33b384	0.70195794
147	0xbcbafbe6	-0.022825193
148	0x3e48519b	0.1956238
149	0xbe33a3e1	-0.17542984

output.weight f4 [1, 150]
0	0x3cb0beec	0.021575414
1	0xbc0182b0	-0.0079046935
2	0x3b0fa79d	0.0021919974
3	0xbcaff2e1	-0.021478118
4	0xbc006487	-0.007836468
5	0xbc0077cc	-0.007841062
6	0x3c849f85	0.016189346
7	0x3c1cad16	0.009562751
8	0x3bb86167	0.0056268456
9	0xbc04b85d	-0.008100596
10	0xbcb03856	-0.021511238
11	0x3bd11235	0.0063803443
12	0x3c41ac2a	0.011820832
13	0x3a501c8a	0.0007938823
14	0xbcaf7575	-0.021418313
15	0x3be96046	0.0071220724
16	0xbb6eb787	-0.0036425309
17	0x3ae3875a	0.0017359063
18	0xbd160c59	-0.03663287
19	0xbc23c759	-0.009996259
20	0xbc6f6b3c	-0.014612969
21	0xbbb7ba78	-0.0056069456
22	0x3b01ae1c	0.0019787615
23	0xbc9e2f85	-0.019309768
24	0xb91b7705	-0.0001482629
25	0xbbaa4fa8	-0.005197484
26	0xbb3d6ecb	-0.002890515
27	0x3cfeacd0	0.031088263
28	0x3aeab010	0.0017905254
29	0xbc5c7871	-0.01345645
30	0x3af07982	0.0018346759
31	0x3d09bc82	0.03362704
32	0x3be2113b	0.0068990267
33	0x3a99e7ee	0.0011742094
34	0xbcbac024	-0.022796698
35	0xbb612fb9	-0.003436072
36	0x3c9f10ba	0.019417156
37	0xbc1c6047	-0.009544439
38	0x3c3d87d9	0.011568033
39	0xba1eaa4c	-0.0006052598
40	0xbcd7ef5a	-0.026359249
41	0xbb2cbfbe	-0.0026359404
42	0xbc7f9069	-0.015598395
43	0x3c217107	0.009853608
44	0x3c6dfe76	0.014526
45	0x3c94dabd	0.018170709
46	0x3c012368	0.007881977
47	0xbc103a4b	-0.008802961
48	0xbc6f44bf	-0.014603793
49	0xbc8efa40	-0.017453313
50	0x3c72efa8	0.014827646
51	0x3c2f4261	0.010696978
52	0x3cbcc94d	0.023045206
53	0x3bb7737d	0.005598484
54	0xbb6b674e	-0.0035919729
55	0xbc426b7c	-0.011866447
56	0xbab47a22	-0.0013769309
57	0xbc4a38c5	-0.0123426365
58	0xbc203ace	-0.009779645
59	0x3c04b02d	0.008098644
60	0x3c58df49	0.013236829
61	0x3c0fb4aa	0.008771101
62	0xbcc81bed	-0.024427379
63	0x3bd3fb0f	0.0064691375
64	0x3cb4287d	0.021991963
65	0xba2e9b29	-0.0006660694
66	0xbc239786	-0.0099848565
67	0xbcb322e2	-0.02186722
68	0xbc2befa9	-0.010494151
69	0x3cfb6f5d	0.03069275
70	0xbc26cb4f	-0.0101803085
71	0x3cc064d4	0.023485579
72	0xbc32685d	-0.01088914
73	0xbc31dd76	-0.010856023
74	0xbc16310d	-0.009166968
75	0xbb6ac8b0	-0.0035825185
76	0x3c0f95ee	0.008763773
77	0xbd4817dc	-0.04885088
78	0x3ca6ba9c	0.020352654
79	0x3c1f75fb	0.009732719
80	0xbc2d738e	-0.010586632
81	0xbcc48324	-0.023988314
82	0xbc277768	-0.01022134
83	0x3cd1e8ea	0.025623757
84	0xbc90d3fa	-0.017679203
85	0xbc62ed4f	-0.013850524
86	0xbb39430d	-0.0028268725
87	0x3b950d00	0.004548669
88	0x3c851031	0.016243072
89	0x3bf21159	0.007387322
90	0xbc895f1b	-0.016768983
91	0x3cb79b45	0.022412905
92	0x3c6429de	0.013925998
93	0x3cf5c7c8	0.03000249
94	0xbaa34f71	-0.0012459588
95	0xbcd05b37	-0.02543412
96	0xba6209f9	-0.0008622702
97	0xbc9b2c17	-0.018941922
98	0x3a53b215	0.00080755475
99	0x3c6d3207	0.0144772595
100	0x3bef7998	0.0073081963
101	0xbc40802c	-0.011749309
102	0x3c35b5bd	0.011090693
103	0x38007247	3.0624007e-05
104	0x3bd16929	0.00639071
105	0xbc49289f	-0.012277751
106	0xbcca9910	-0.024731189
107	0x3cb4de42	0.022078637
108	0x3c2532d9	0.010082924
109	0x3c9e0692	0.019290242
110	0xbcbc1b6e	-0.022962298
111	0x3cc313e0	0.023813188
112	0x3d04a599	0.03238449
113	0xbb9ed2bb	-0.0048468984
114	0xbcbf23c0	-0.023332477
115	0xbc0290cb	-0.007969092
116	0xbb60aa30	-0.0034281127
117	0x3c35b059	0.011089408
118	0xbbb973f0	-0.005659573
119	0x3c024635	0.007951309
120	0xbc0e5c85	-0.008689051
121	0x3c8a8bbc	0.016912334
122	0xbcdb3a37	-0.026761157
123	0x3c75dbdf	0.015006035
124	0xbc19d07d	-0.009388086
125	0xba8a14da	-0.0010534779
126	0x3c433e97	0.011916778
127	0xbc8b03a6	-0.016969513
128	0x3c9db756	0.01925246
129	0x3b9de4e2	0.0048185447
130	0xbc1bec6f	-0.009516819
131	0x3c43b7e0	0.011945695
132	0x3c17cc57	0.009265027
133	0xbc210c67	-0.009829617
134	0x3b86cf79	0.004114088
135	0xbb22a4ca	-0.002481746
136	0x3bac8b14	0.005265603
137	0x3bb64daa	0.0055634575
138	0xbc7852d0	-0.015156463
139	0xbc17bbae	-0.009261055
140	0xbcc5afca	-0.024131674
141	0xbc735949	-0.01485283
142	0x3b55b1f8	0.0032607298
143	0x3b06fa86	0.00205961
144	0xbc680d41	-0.014163316
145	0xbc49b1e6	-0.012310481
146	0x3c13b0cb	0.009014319
147	0xba848725	-0.0010111077
148	0x3c464278	0.012100808
149	0xbc8d6240	-0.017258763
