p3_collab-compet/weights/agent2_checkpoint_actor.pth (torch_old, 142804 bytes, 6 tensors)

fc1.weight f4 [200, 24]
00000000: ceeb 413d de1b e6bd 2410 56bd 2418 813d
00000010: f385 a9bc 6441 d13d 4e03 da3b 132c f9bc
00000020: 9a62 193d 3228 12be a810 8ebc f1d1 003e
00000030: 010f 1a3d 0a51 b23d 3241 45bb 210c 1a3e
00000040: 398c 35bd 90ea edbd 35f7 92bc e478 913d
00000050: d1c3 bc3d ecae 023d 9fc1 953d 68a7 b9bb
00000060: 450d b4bd 8c3c 033d 548e f4bc 6c05 313d
00000070: cbab f6bd 889e 033e 82d2 083d a5ee b93c
00000080: 8a70 4fbd 569b da3c 8f36 bfbb 409b 213d
00000090: a899 0dbd 44ba 063e 9155 36bc d858 60bc
000000a0: 35b7 adbd 32ef 9b3d 51ec cfba 4fa2 953c
000000b0: f24e 453d d74d 153e 3286 01bd d377 0cbb
000000c0: 0000 be3d 12d0 e3bd b3b7 103d 244d ae3a
000000d0: dce5 e9bd ff33 64bd a70e 443d 9aa5 9d3b
000000e0: 0fd0 89bc f461 80bd 6323 09be d90b a83b
000000f0: 5feb 5e3d dcb9 9a3d 4182 17be 583b adbd
00000100: b54e 1e3d 008f 31be 9e76 31bd 92da aabc
00000110: 6bd9 ef3d 8545 2b3c c0b2 903d 2e1a 653c
00000120: a5e6 66bc dda7 8e3c 5063 683d 05b4 20be
00000130: 1599 35be 072e 87bd 2067 4e3d 055a ffbc
00000140: 1c71 a9bd 6ffb b33d 7922 66bc 390c cbbc
00000150: d109 d1bd 8df6 dabd 38bd 1cbd 3751 9bbd
00000160: d752 313c 1255 873d 8c47 433d 9884 6cbd
00000170: 730f 62bd 2c7c 08be dceb b3bc b81f 03be
00000180: 1879 0bbd a29b c93d 28e3 5ebd 3499 bebc
00000190: 0614 7fbd e47e 063e 9096 da3c 9c1d 943d
000001a0: 7ab6 573c 2871 163e 027e 9e3d 5832 9c3d
000001b0: 9de5 863d 8023 cbbc 1264 303c eda1 463d
000001c0: 8202 a0bd 072e 043e 50b8 c3bc e063 85bc
000001d0: 5d7d 013e d0f0 b03c 3c58 e73c e0b7 a33d
000001e0: 52a0 aa3c 7419 2fbe aff3 8c3c f261 2b3c
000001f0: 66cf 9c3d 2c20 c8bc faa2 2abc cfce a5bd
00000200: 0f71 473d 8290 f6bd 2bb9 59bc 669b 5ebd
00000210: 77fa c8bc d5c5 ab3d 5f68 e5bc 2fbe 7f3d
00000220: 9790 313c ce30 22be 7a73 a43d c65d 563d
00000230: f460 4cbe fed3 a73d dbae a5bc face 353d
00000240: 0b1e 863d 7f28 83bd 0f17 a63d 8cc1 1d3d
00000250: b7f5 8cbd e7a1 ffbd fe36 02bd 9be7 803d
00000260: 0357 e23d bcf4 fbbc 65c2 58bb d0de ea3c
00000270: 9280 713c 17db b33b 0133 a6bd 6005 823d
00000280: f400 e5bb 32fd e4bb 01ce abbd f0cf c13d
00000290: ad21 fc3d 0375 0c3e 3b2b bfbc 3daa e53c
000002a0: bec2 b23d bcf0 64be 6470 063d 67b6 96bc
000002b0: dba6 f03c 5aa3 1d3d 1dd7 98bd d022 fe3c
000002c0: a736 86bd 65a4 4abe f650 8bbc 4944 0abd
000002d0: 2b88 26bd 217c f83d 760b 963c 707d 823d
000002e0: 08be 893b 54e2 b5bd c4b1 803d d94c 9b3d
000002f0: f648 10be a51e b03d 787a 7fbd 94b8 f1bc
00000300: f3ea 0d3c 0394 febd ec71 fe3c 5797 e63d
00000310: d796 7cbc 3e78 5f3d fbd9 223d 113a 8c3c
00000320: 11c5 aabd 6e5b 4ebd d9e7 64bb 2b3d b53c
00000330: c768 dcbc 76e2 6abd 6f77 3f3d e3aa 9b3d
00000340: fee0 81bd d3a1 93bc 54e3 4cbd e261 513d
00000350: 2e6b 043c adb6 d7bd 6bf9 093c 6365 cbbc
00000360: 4fc8 4abd 9e93 e5bd 4f00 38bd 2573 44bc
00000370: efe8 20bc 63cd e63c 7ec4 58bb e628 03bd
00000380: 37a0 bd3c e9f4 a9bd bdab ad3c ad3c 3c3d
00000390: a5d7 403d 64cb dc3d f77d c1bd e390 413d
000003a0: bb80 c23b 758a e3bd a461 833c 269c 893d
000003b0: dced 2e3e 3902 f33d e32d 46bd a293 343c
000003c0: 22ac 9d3d 7e9b 32be d5f6 60bd 429d cc3d
000003d0: 1c1e e93c eb6c edbd 0adc 4ebd f144 043e
000003e0: 5fbd 8dbc c643 54be 40dd 683d c329 4a3e
000003f0: dae6 88bc 7d44 af3c c508 82bd c5c5 d43d
0.04734402 -0.11235784 -0.052261487 0.063034326 -0.020693755 0.102175504 0.006653226 -0.030416524
0.03744755 -0.14273146 -0.017341927 0.12580086 0.037611965 0.08706863 -0.0030098674 0.1504369
-0.04432318 -0.11617005 -0.017940143 0.07103136 0.092170365 0.0319051 0.07312321 -0.0056657083
-0.087915935 0.032040164 -0.029853024 0.04321806 -0.12044486 0.12853444 0.03340388 0.022696802
-0.050644435 0.026685398 -0.0058353613 0.0394547 -0.034570366 0.13156992 -0.011128799 -0.013693057
-0.084822096 0.07613982 -0.0015863274 0.018265871 0.04817099 0.14580475 -0.03162212 -0.0021433725
0.09277344 -0.11123671 0.03533144 0.0013298136 -0.11420795 -0.05571365 0.047865536 0.004811001
-0.016822843 -0.06268683 -0.13392405 0.0051283655 0.054423686 0.07554981 -0.14795782 -0.084585845
0.03864928 -0.17339706 -0.043326013 -0.020856176 0.11711391 0.0104535865 0.07065344 0.0139832925
-0.014093076 0.017414028 0.056735337 -0.15693672 -0.17734177 -0.06600576 0.050391316 -0.031170854
-0.08273527 0.087881915 -0.014046305 -0.024786102 -0.102069505 -0.10691557 -0.03826639 -0.0758385
0.010822973 0.06608023 0.047675654 -0.05774364 -0.055190515 -0.13328618 -0.021963052 -0.12805068
-0.03405103 0.09844138 -0.05441585 -0.023266412 -0.062274955 0.13134342 0.026683122 0.0723221
0.013166064 0.14691603 0.07738878 0.0762679 0.06586764 -0.024797201 0.010766046 0.04849427
-0.07812978 0.12908183 -0.023891598 -0.016282976 0.12645479 0.021599203 0.028240316 0.07994056
0.0208284 -0.17099553 0.017206041 0.010460364 0.076567456 -0.024429403 -0.010414833 -0.08096086
0.048691805 -0.120392814 -0.013288776 -0.05434742 -0.024533493 0.08387343 -0.02800387 0.062437233
0.010837696 -0.1583893 0.08029838 0.052335523 -0.1995886 0.08194731 -0.02022498 0.04438684
0.06548699 -0.064042084 0.08109867 0.03851466 -0.06882804 -0.12482052 -0.031790726 0.06294175
0.110517524 -0.030756347 -0.0033074853 0.028670698 0.014740126 0.005488764 -0.08115197 0.063486814
-0.006988639 -0.006988191 -0.083889015 0.09463489 0.12311111 0.13716511 -0.023336044 0.028035278
0.087285504 -0.22357458 0.032822028 -0.018397523 0.029376438 0.038485862 -0.074629046 0.03102246
-0.06553393 -0.19789274 -0.017006379 -0.033756528 -0.040657204 0.12133051 0.018316012 0.063715816
0.0042035617 -0.08881059 0.06283906 0.07583017 -0.14090332 0.08599595 -0.062372655 -0.029506959
0.008661973 -0.12430575 0.031060182 0.112593345 -0.015416822 0.05455803 0.039758664 0.017117532
-0.08338369 -0.050380163 -0.003492823 0.022123894 -0.02690543 -0.057344876 0.04674476 0.076009534
-0.06341742 -0.0180215 -0.050021484 0.05111874 0.008082194 -0.105328895 0.008421282 -0.024828618
-0.049507435 -0.11209796 -0.04492217 -0.011990343 -0.009821161 0.028174108 -0.0033076103 -0.032021426
0.023147685 -0.08298666 0.021200055 0.045956302 0.047080655 0.10780981 -0.09447854 0.047257315
0.005935756 -0.11110393 0.01603777 0.06719236 0.17082924 0.11865658 -0.048383605 0.0110215265
0.07698847 -0.17442128 -0.054922897 0.09990932 0.02845674 -0.1159304 -0.050502814 0.12916924
-0.017302213 -0.20728979 0.056851625 0.19742493 -0.016711641 0.021394962 -0.06349329 0.10389284

fc1.bias f4 [200]
00000000: 3257 083e 574d e53d f858 e23c 231f 90bc
00000010: 091c cabd 2923 95bd f094 b2bd ea12 fbbd
00000020: 8fbf 4e3e 9889 37be 4d22 56be bef8 d6bd
00000030: 64c8 503e db31 15bd d91a 803e 8c90 4c3d
00000040: 3318 313c f700 073e 78ef d13d 2f11 e2bd
00000050: a663 d63c 82f6 453e fcce 1d3e fe4e f1bd
00000060: 8b79 0ebd fbfd 0c3e 14c9 e03d e047 e63c
00000070: f1dc 83bd 7cac 23be 297e 77bd e032 233e
00000080: 818d 2ebd 25ca 13be e169 a73c 945b 4e3e
00000090: e01d 4ebc a681 eabd 923e 363e c45c 563e
000000a0: a9d6 94be 5ebc 7abe e710 13be 7863 7b3e
000000b0: ec93 01be 10e3 51bd c7bb 7a3e 5325 8bbc
000000c0: 474d d5bd 2b96 00be 7a74 0a3d a04e 543e
000000d0: 9e5f 1a3e 401b ef3d c886 11bc 205c b6bc
000000e0: fe7e 90bc c0e1 193e b11c 893c 4a0b 51be
000000f0: b971 25be 68bb d43d f21f 903e a31b 4abc
00000100: c40a c8bd 76e5 19be fcf9 32be b653 093e
00000110: 5b6b 273e 8531 b53d d1c5 e73d 26aa d13d
00000120: 5e47 6f3e 6ee5 1f3e 6706 213e 7522 153d
00000130: e08f 0b3e 89a8 1fbd f735 49be 5f1a 9a3d
00000140: a6d1 3abd 1a58 3abe 1f91 88bd e002 e9bd
00000150: 021c 1e3e 9b2e 423e 1b4d 18bd ed95 b03d
00000160: 0028 8ebc fb0d 723e 40e2 00be fa4b f3bd
00000170: ae9a 23be d1ac e23d e797 39be c143 a43d
00000180: 5e30 c83d f8b6 f1bd e6da 87bd 8034 33bd
00000190: d125 983d 29c3 a2bd aa66 ac3d 37a4 f2bc
000001a0: d4b6 7cbd 08c9 99bd 1efd e5bd 8328 c13d
000001b0: 8314 043e a5fe 89bc 2c8f 92bd b796 52be
000001c0: ff36 24bc b12a dcbd 5e12 babd b779 7bbe
000001d0: dc13 86bd 774d efbd b05f 103e 9d96 dc3d
000001e0: e86a b23d c8ec 64be 7f8b dd3c c5e7 223e
000001f0: 7c90 fd3d f7f2 9f3b c27b ee3d ff23 65be
00000200: b55e 673c 067e 4b3e 0783 bf3d c3e9 2fbe
00000210: df6d 98bd 2c97 5a3d 7f65 f73d 78f4 ec3b
00000220: 8bbd 08bd 24dc fdbd 73be f0bc 319d 053d
00000230: d798 01be 2e25 2dbe 4ebe 4e3e f3d6 843e
00000240: 3ea5 2cbd 4e88 803e 2f95 6f3e 8a15 a9bd
00000250: 3c8c ecbc b07b a2bd 6979 173e b797 133d
00000260: e2b8 88bd 413b 4e3e 838f c2bd 979e 57bd
00000270: ad5a 4dbe eae0 95bd 1232 953e 920e 14bd
00000280: ab2b 84bd b566 ff3d b385 11be 3a6d 17be
00000290: 1fc7 213e 375c afbd f1f4 1ebe 7cec 5d3c
000002a0: 82b2 f13c 7aa4 b73d 4d15 d63d 854e e2bd
000002b0: 753b 733e 18be 30be f236 763d c4ae 953b
000002c0: 57fa 69be d64c 483e d601 30be c73c 8e3d
000002d0: 34d2 993d 6f45 2b3e c9a7 40be ccdf 4f3d
000002e0: 6905 7b3e 94c7 5dbe 17c7 773d 9608 91bd
000002f0: 6c3b 84bc 3e09 35be ac5c 013e 486a 0ebd
00000300: 9334 563e 33a0 d13d 72c6 0a3d b095 773c
00000310: a373 2ebe 305b a4bd 4812 8b3d 891f 35be
0.13314512 0.11196392 0.027630314 -0.017592972 -0.098686285 -0.07282097 -0.08719814 -0.12259467
0.20190261 -0.17923582 -0.20911522 -0.104966626 0.20388943 -0.0364245 0.25020483 0.04994254
0.010808992 0.13183962 0.10250753 -0.11038434 0.026170563 0.19332317 0.1541099 -0.11782645
-0.03478388 0.13768761 0.109758526 0.028110445 -0.064386256 -0.15983766 -0.06042305 0.15937376
-0.042615417 -0.14432581 0.02043623 0.20152122 -0.012580365 -0.1145051 0.17797306 0.20933825
-0.29070023 -0.24485919 -0.14361916 0.24549663 -0.12654084 -0.051241934 0.24485694 -0.016985571
-0.1041513 -0.12557285 0.033802487 0.20733118 0.15075538 0.116751194 -0.008882232 -0.022260725
-0.01763868 0.15027523 0.016737314 -0.20414463 -0.16156663 0.103873074 0.28149372 -0.012335691
-0.097676784 -0.15028939 -0.17478174 0.1341084 0.16349547 0.08847336 0.11317027 0.10237531
0.23367068 0.15614864 0.15725099 0.036409814 0.13629103 -0.038979087 -0.19649492 0.07524561
-0.045610093 -0.1819767 -0.06668305 -0.113775015 0.15440372 0.18963091 -0.03718291 0.08622346
-0.017353058 0.23638146 -0.12586308 -0.11879726 -0.15976974 0.11068118 -0.18124352 0.080207355
0.0977485 -0.11802477 -0.066335484 -0.04375124 0.07429088 -0.0794738 0.08418019 -0.02961932
-0.061697796 -0.07509047 -0.11229919 0.09431555 0.1289845 -0.016845057 -0.07156214 -0.20565306
-0.010022878 -0.1075033 -0.090855345 -0.2455815 -0.065467566 -0.11684697 0.14099002 0.10770915
0.08711797 -0.2235595 0.027044056 0.15908726 0.12381074 0.0048812586 0.11644699 -0.22377013
0.014121701 0.19872293 0.09351163 -0.17179017 -0.07442831 0.053366825 0.12079906 0.0072312914
-0.033383887 -0.12395504 -0.029387688 0.032620613 -0.1265596 -0.16908714 0.20189783 0.25945243
-0.042149775 0.25103992 0.23396753 -0.082560614 -0.028875463 -0.07933748 0.14792408 0.03603336
-0.066758886 0.20139791 -0.09500029 -0.052641477 -0.20054121 -0.073182896 0.29139763 -0.036146708
-0.064536415 0.12470762 -0.14211158 -0.1478776 0.15798615 -0.085625105 -0.15523125 0.013545152
0.029504064 0.08966918 0.104532816 -0.11050133 0.2375315 -0.17260015 0.060110994 0.004567953
-0.22849403 0.1956056 -0.171882 0.06945186 0.07510796 0.16725706 -0.18814005 0.05075054
0.24513783 -0.21658164 0.0604926 -0.07081716 -0.016141616 -0.17679307 0.12633008 -0.034769326
0.20918493 0.10235634 0.03388066 0.015111372 -0.170363 -0.08025205 0.06790596 -0.17687811

fc2.weight f4 [150, 200]
00000000: c4f0 b43b 2e81 1a3e fb7b 613c 4a3b 223d
00000010: 9822 263e 07f6 17be fa48 d7bd 9043 eabd
00000020: 13c1 44bd b4e8 b2bc 9422 9bbd 20bf 95bd
00000030: ef4b 6dbc 45b1 d1bd 28c0 063e 5537 f5bd
00000040: ec22 783d 8958 1a3d 5e12 ff3d ff18 ec3d
00000050: 1300 5a3d aef2 0cbd e574 1e3c 4f37 e63d
00000060: 9f1f 463d 8097 f83d d481 233e 1a73 a73d
00000070: 953b 4cbb dabc a5bc 5579 7dbd 797f 76bc
00000080: eae1 04bd 60d8 22be f22f 593b ceb4 eb3d
00000090: c1a0 143e 85f9 8bbd 060c bbbc 5ac2 9b3c
000000a0: 1f97 aebd dbb3 2d3c 66d0 1ebb 712c 173d
000000b0: abd0 04bd 48dd 41be 5f1f f13d 3097 3cbb
000000c0: 345c b0bd c985 353d 1f9b b23b ecd7 1c3e
000000d0: a578 86bd 40e6 3a3d 8db9 5a3d e072 5dbc
000000e0: f747 cebd fc28 c23c 88ec c9bb 524e 8d3d
000000f0: 070c 00be edea 23bc 1dd0 3abb 51aa fdbd
00000100: 8cab 753c 459a bdb9 8f20 b33d 8e67 e03c
00000110: 07c0 23bd ca24 7b3d 2b3d fa3b fbaa cfbd
00000120: ae18 2abc b654 373d 8347 873d 885c abbd
00000130: 8dc2 4dbc 3060 1e3d 397e b1bd e23a 543d
00000140: acf5 febd 1195 69bd 6acc 8f3d c479 523d
00000150: 972e a33d 3124 5e3d 9bfb 093d 80b6 133d
00000160: b81e cdbd 8584 d3bc cafd a7bd 7141 3a3d
00000170: 0ff6 423c ea69 8b3d 67c0 cabd db64 953d
00000180: 58e5 e9bd da54 d8bc 47a7 c83d 0334 7bbd
00000190: 5386 013d 4413 813d 62e3 973d 82e4 a03d
000001a0: 3705 3c3e b52a ebbd 2ecb 9a3d 4e98 30be
000001b0: dd73 2e3c 1183 3abd 4a4a b5bd d966 e8bc
000001c0: 292b b2bc 6949 babd 0db3 b1bc d351 3fbc
000001d0: 1301 ac3c a653 293e 004b ba3d fddb adbb
000001e0: 5779 cebd d98b 3fbd 8e90 c5bd ae95 00bd
000001f0: fdfa b23d c481 8bbd a624 5ebd 35ac 2dbc
00000200: 789a 7ebd 732c 9fbd 1e83 36be 573a 293d
00000210: 3d70 d2bc f361 993d bab2 1ebd a7c9 a13d
00000220: fc71 e1bd 5380 e5bd 6eff 833d 1677 363d
00000230: 532c 503d 3f7f b43d c7c1 eb3d 6880 1b3e
00000240: 6cb1 183e 5349 f93d a75c 2bbd 4079 4d3d
00000250: 701f 3f3c ae06 a43d 1361 39bc 2b30 e93d
00000260: 2281 683c 635f 9dbd ba3d bcbd 52ce c03c
00000270: 4705 b83b 8719 393e e577 8d3b e499 003e
00000280: f4eb 4a3d 97cd 3ebd 3d0a 5e3d c326 053d
00000290: bfd1 b63c 6f25 ab3d 58a0 bbbd 7d48 903c
000002a0: 3c2e 9e3c 169f 8b3d 1ae1 af3d 1da7 443d
000002b0: 4ce6 b9bd dad4 333c 1b83 d73c 8ae9 803d
000002c0: 5cd7 8bbd 9528 23bc 5e51 48bd 6879 b7bd
000002d0: 4d7a bc3c 3805 843c 0299 82bd 5a81 91bd
000002e0: 1614 023d 03a9 2b3d e866 9fbc db57 353d
000002f0: 01e8 21bc 6fcc a23d 3921 003c 2c44 8e3d
00000300: b823 293d cc54 1f3d 3754 503d cfba ec3d
00000310: 0bb6 5bbd 7051 813c 5bde 78bd 28ca 70bd
00000320: 8024 d4bd f745 efbc a10f 5fbc 2338 b7bc
00000330: 4951 fa3d d98c abbd 4a8a 45be 74e2 cabd
00000340: b144 043d e790 b3ba 3543 a33c 0f29 87bc
00000350: 7eff cc3d 2a48 4d3d 9b60 a43d 6666 ef3b
00000360: b429 023d fd3a 033e 6ecc 993d fd5b 013c
00000370: f3bb 0b3d 1573 cdbc 5c3a 27be ebc8 393d
00000380: 1900 d0bd 841a 87bc f100 b1bd 4dd5 afbd
00000390: 3b95 913d b58e 9d3d 0b3c 803d 07cc c8bd
000003a0: 9a01 0c3d 03b0 c0be aacc 843c 2178 c23d
000003b0: ab2c a83e 3ef1 0e3d f1a0 cf3d 071e 573c
000003c0: fed4 ac3d 104c 0fbe d71e 7e3d 4411 00be
000003d0: 4c0d 40bd fb3f afbd 3e77 7cbc 256d 76bd
000003e0: 5720 133c b1b4 52bc bb99 2b3d 9361 b53e
000003f0: 12ad 17be bd0e c93d 5099 9ebd 4a5b 513c
0.0055218656 0.1508834 0.013762469 0.039607324 0.16224134 -0.14839946 -0.10511966 -0.11438668
-0.048035692 -0.021839477 -0.07574955 -0.07311845 -0.014483436 -0.102388896 0.1315924 -0.11973444
0.06058018 0.03768209 0.12454675 0.11528205 0.053222727 -0.034411125 0.0096714245 0.11241018
0.04837 0.12138271 0.15967494 0.08176251 -0.0031163443 -0.020231653 -0.06188329 -0.01504504
-0.03244201 -0.15902853 0.003314015 0.11509095 0.14514448 -0.068347014 -0.022832882 0.019013572
-0.08524918 0.010601963 -0.0024233102 0.036907617 -0.032425564 -0.18932068 0.11773562 -0.0028776638
-0.08611336 0.04431704 0.005450621 0.15316743 -0.0656598 0.04562974 0.05339961 -0.013516158
-0.1007232 0.023701183 -0.00616223 0.06899704 -0.12504588 -0.010004741 -0.0028505393 -0.12386001
0.014994513 -0.0003616383 0.087464444 0.027393129 -0.039978053 0.06131438 0.0076366863 -0.10140034
-0.010381861 0.04475852 0.06605437 -0.08367258 -0.012558592 0.03866595 -0.08666653 0.051813968
-0.12449202 -0.057026926 0.07021411 0.051385656 0.07967871 0.054233734 0.033687215 0.036062717
-0.10015625 -0.025820026 -0.08202703 0.045472566 0.011899485 0.06807311 -0.09899979 0.07294627
-0.11420697 -0.026407648 0.097975306 -0.0613289 0.031622242 0.06302503 0.07416417 0.078560844
0.18361364 -0.11482755 0.07558285 -0.172456 0.010647741 -0.04553515 -0.0885206 -0.028369354
-0.021749096 -0.09096033 -0.021691823 -0.011677223 0.020996606 0.16535816 0.09096336 -0.0053057657
-0.100817375 -0.04676423 -0.09646712 -0.031392746 0.087392785 -0.0681186 -0.05423417 -0.010600139
-0.06215903 -0.0777215 -0.17823455 0.041315403 -0.025688285 0.074893855 -0.038744666 0.0789979
-0.11008069 -0.112061165 0.06445204 0.044547163 0.05082352 0.08813333 0.115115695 0.15185702
0.14911431 0.121721886 -0.041836407 0.05016446 0.01166521 0.080090865 -0.011314648 0.113861404
0.014190944 -0.07684209 -0.09191461 0.023535881 0.0056158635 0.18076144 0.004317271 0.12558705
0.04954143 -0.046582785 0.054208983 0.03250767 0.022316812 0.08356749 -0.091614425 0.01761269
0.019309156 0.068174526 0.085878566 0.048010934 -0.09077129 0.010976041 0.026307633 0.06294544
-0.06828186 -0.009958406 -0.048905723 -0.08958703 0.023007536 0.01611577 -0.0637684 -0.0710475
0.031757437 0.04190923 -0.01945825 0.04427324 -0.009881974 0.07949149 0.007820421 0.069465965
0.04129383 0.038899228 0.050861564 0.115590684 -0.053640407 0.015785903 -0.06075893 -0.05878654
-0.10358524 -0.029208167 -0.013614566 -0.022365635 0.12222535 -0.08376474 -0.19291034 -0.09906474
0.03229207 -0.00136998 0.019929508 -0.01649907 0.10009669 0.05011765 0.080262385 0.007305908
0.031778052 0.12815471 0.07509695 0.007895467 0.03411479 -0.02507929 -0.16330856 0.045357626
-0.101562686 -0.016492136 -0.08642758 -0.08585606 0.071085416 0.07693235 0.06261452 -0.0980454
0.034181215 -0.37634286 0.016210873 0.09495569 0.3284658 0.034898035 0.10138119 0.013129718
0.084390625 -0.1399386 0.06204113 -0.12506586 -0.04688768 -0.08557125 -0.015409289 -0.060162682
0.008979878 -0.012860463 0.041894656 0.35426006 -0.14812115 0.09817264 -0.07744086 0.012778113

fc2.bias f4 [150]
00000000: 98ef 59bc 4e20 863d 7b65 2e3b d5c8 40bd
00000010: d9f0 ce3d 639f b4bc c3a3 bc3d 18d8 11bb
00000020: 7128 97bc ef32 863a bf11 453d 1418 0abb
00000030: d79c f23c a258 4e3c b017 8fbc 3515 b43c
00000040: b144 523d b1e0 d23c 9c72 95bc 8fba 3a3d
00000050: 76e3 95bc cd9c 5c3c 59b1 283d 2ebb b23d
00000060: d921 ac3d 913b 013e 1304 c03d f4d9 ea3c
00000070: 0c42 ec3d d2c8 f43c 3a0c 0ebd 0025 eb3d
00000080: ee71 cc3c 535d a9bc ffb8 803d 1427 ae3b
00000090: 9af9 b13c d621 103d 6ee5 273d 0d6b 8abd
000000a0: 8bda a33d 9cf9 8abd 713d 54bd a0c5 a7bd
000000b0: 3075 b6bd 5026 db3c 8cc7 bb3d 6e09 4f3d
000000c0: 6c86 3e3d e88c 4f3d af53 26bd 9726 f1bc
000000d0: dc83 d9bb 6088 ff3c 0466 64bd b0a8 aa3c
000000e0: d6e3 fa3c 7293 2f3d aed8 033d 7444 54bd
000000f0: 2081 46bd f5c8 833d 4ca7 b4b9 246e 0d3e
00000100: 9074 0abc 927c d4bb 4be8 573d 431a 58bd
00000110: 0333 7fbd 491f 8a3d ebfa dd3c b227 453d
00000120: 90ae 563d 9530 bb3d 22e9 8dbd fe3b a33c
00000130: a9f9 acbb 46c2 c23d c280 c5bd d1b1 753d
00000140: 3dd4 ae3c f5ca f3bd ccfe 07bd ab0e cbbd
00000150: f1e3 5dbd 90e3 313e 63f3 083e 3de9 713d
00000160: 0079 3fbd 60b6 c5bd bc2f 46bc a5dc 01bb
00000170: 2ade 32bd 752c 10bc 868e 833d b442 6e3d
00000180: 33a4 5dbc c3cf 5e3d 444a 3ebd 7018 c63c
00000190: 12c6 053e a42c 9a3c 29a7 983d 3f17 1d3e
000001a0: 4c18 a83d 8845 86bd 0de4 b4bc 2f0f 403c
000001b0: 5d8f db3c a94c 1c3d 4841 8b3d 58ef 1e3d
000001c0: a6c0 873c 5093 073e f980 653d f28e fabb
000001d0: 2d50 59bc 5f0c 67bd fb0a 363d 8790 c93d
000001e0: 5d4b a4bc 5bb1 ca3d e924 87bd 4175 9fbc
000001f0: 1bd7 5f3d 70a3 eb3d 1dc4 c9bd 91c9 1bbd
00000200: d815 6a3d 6275 6abc edaf a3bc 71a7 51bd
00000210: d568 4e3d f45f 1abd 475f 2d3d 13ad 7f3c
00000220: 28a6 203d 6b40 df3d 3378 5d3d 5c2a 4bbd
00000230: 4f1c 883d c177 6fbd dae7 a23c a7b8 693d
00000240: 6685 6ebd 1f32 d13d 1789 a03d cdb8 1e3d
00000250: 73f9 7d3d dd0f eabd
-0.0133017525 0.065491304 0.002661078 -0.04706653 0.10104532 -0.022048658 0.092109226 -0.0022254046
-0.018451901 0.0010238568 0.048112627 -0.002107148 0.029615803 0.012594374 -0.01746735 0.021982769
0.05133504 0.025741907 -0.018243127 0.045588072 -0.018296938 0.013465119 0.041184757 0.08727108
0.084048934 0.12620379 0.09375777 0.028668381 0.11536035 0.029880915 -0.03467963 0.114816666
0.02495667 -0.020674383 0.06285285 0.005314717 0.021725465 0.03518852 0.040990286 -0.067586996
0.08000668 -0.067858905 -0.051816408 -0.08191991 -0.089090705 0.026751667 0.0916892 0.050546102
0.046514913 0.050671488 -0.04060715 -0.029437346 -0.0066380333 0.031192958 -0.055761352 0.02083239
0.030626219 0.042865224 0.032189064 -0.051823094 -0.048462987 0.06434814 -0.0003445692 0.13811547
-0.008450642 -0.0064845765 0.052711766 -0.05275942 -0.062304508 0.067442484 0.027097186 0.04813356
0.05241257 0.09140126 -0.06929232 0.019926067 -0.0052787852 0.09509711 -0.09643699 0.059984032
0.021341437 -0.11903945 -0.033201978 -0.09914907 -0.05417246 0.17371964 0.13374095 0.059060324
-0.046746254 -0.09653926 -0.012096342 -0.0019815352 -0.043668903 -0.008799662 0.064236686 0.05816908
-0.013527918 0.054397356 -0.046457544 0.024181575 0.13063839 0.018820114 0.07453758 0.15340899
0.08207759 -0.06556231 -0.0220814 0.01172237 0.02680176 0.038159046 0.06799561 0.038802475
0.016571354 0.13239789 0.0560312 -0.007646435 -0.013263744 -0.056408282 0.044444066 0.098420195
-0.020055467 0.09897109 -0.06598837 -0.01946509 0.0546485 0.115057826 -0.09851859 -0.038034026
0.057149738 -0.014310213 -0.019981349 -0.051185075 0.050392944 -0.037689164 0.04232719 0.015605229
0.03922096 0.109009586 0.05406971 -0.049600944 0.066460244 -0.058463816 0.019885946 0.057060864
-0.058232687 0.10214638 0.07838648 0.03875046 0.06200547 -0.11428807

output.weight f4 [2, 150]
00000000: e5e5 533d 1a3a 923e bfde 83bd 8eb8 abbd
00000010: e25f ec3d d29f eb3d d083 273e 4ff7 c83c
00000020: 1364 933d 7a6d 6d3e 7d51 87bc eeb7 2d3d
00000030: 164f d0bc a056 d83d d736 b4bc dbf6 7a3d
00000040: c5b1 193e ff0c b13b ea49 d7bc ebe5 1e3e
00000050: f4be c13d 2b22 523e d12a 393d 102b 4f3e
00000060: 545b aebb fc2e 373d 8381 553e ccd0 fa3d
00000070: 208f 353e 093a c0bc a2e3 443e 73d3 ae3d
00000080: 6b09 0b3e e8e6 7f3e 09bd c93d 9bed c43d
00000090: 4861 9ebc c3eb c53d a58a 403d 8428 f1bc
000000a0: c545 313e b1c3 8abd f6f7 d4bc 43a1 d5bc
000000b0: df56 bdbd d68c 3dbe a3e9 303e a081 753d
000000c0: 8771 5f3d 18e9 183e 7e46 5e3e ebd2 0a3e
000000d0: dc16 5f3e 90fa 223e 4a61 553b 8a58 393e
000000e0: d5c5 b3bc 24f7 9f3d c912 463e c85d 403e
000000f0: 4c24 36bc f970 bc3d 0684 cd3c e4be d03d
00000100: 790f 0a3e 422b a6bd 05d2 8c3d 0f07 d6bb
00000110: 4885 d3bc 7631 a73e 1012 57bc f9d1 3cbc
00000120: 3f1d 2e3e fefe 423d 19ce a5bc 0da6 af3d
00000130: 56fd 363d 787b ef3d c12b d5bc 4a8a c03c
00000140: 24bd f43c 5ac8 24bc 9535 233e 37f5 16be
00000150: feb4 f6bc 2159 ce3d 6058 123d de93 9a3c
00000160: c802 1b3a 6a6d c9bd f80c 043e 70f3 5d3d
00000170: d2fe d8bc 7983 c9bc ccea 90bc e712 703d
00000180: 87fb 7bbc ce47 723d 50d7 33bd 8b29 fa3d
00000190: c732 003c 32f7 243e d483 1d3e d1b3 2b3d
000001a0: 49a1 7e3e c30b 7cbc 2853 953d 520e 163e
000001b0: 1e40 933c e4a4 ad3d 4ef9 5f3e 46b4 083e
000001c0: 1a7e 4d3e d73a 673e a8b5 88bc bcea c53d
000001d0: c0c1 d9bc 78f0 b9bc 9e6c c73d 959c 943b
000001e0: 0b77 febc 4315 383e 3101 1abd 9b4c 6dbc
000001f0: 48b6 f23d 943c 683c 1bc9 a9bd 3887 47bc
00000200: 249a 8a3d 07b5 bb3d 579d fabc cdde 95bd
00000210: c1c7 24bd 1f95 793e 8d46 523e 3d41 eabc
00000220: 6681 b8bc 8d8a 863e a003 333e e19c c5bc
00000230: c660 313e bc7a a7bc 2e9e 0a3e 5633 a93c
00000240: 6c2a 003d 982b 493e a846 053e e729 c23d
00000250: 11b3 623e 811a ccbd a42b 44be 8969 49be
00000260: d780 1e3d 3ae3 7bbb 4818 60be 0356 eabd
00000270: 00c0 19be d284 6e3e d809 bbbe 1e3e 11be
00000280: 4755 b33c 34e9 2dbe f774 1b3d 3c68 c93c
00000290: 6011 b53c beb1 8cbd fe31 8ebd bd20 8cbd
000002a0: 59b4 073d 4ebe fabc 2195 b4bd 257d b9bd
000002b0: 36d3 0abe a580 b7bd e82f 7bbe b475 b6be
000002c0: fa1f efbd 25ea 0bbe 2147 f0bc c25f 033d
000002d0: b736 303e 1241 c5be 73c2 c7bd 7555 74bd
000002e0: 8935 7bbe 90e7 25be f740 2d3c d142 a0bd
000002f0: d7d9 6abe 8166 093d 61dd 83be ba8e 7f3d
00000300: 5e1b 183c 34fb d73c 015e 303d e06c ff3c
00000310: cce0 f2bd eb26 8dbd 94b7 233d 3226 32bd
00000320: 7ada 543e 1b57 73bd 2ce1 61bc b05d 96ba
00000330: a4ca 0d3e e553 5abc c66b 053d 3b67 ffbd
00000340: 75b5 8c3e f8d4 a7bd a6a1 c43d d567 fe3d
00000350: e715 97be 967f ffbd 829f b93d 7919 b53d
00000360: 0707 81be 5171 4a3d f04b d73c bb85 9bbd
00000370: ae58 16bc a412 5bbd 12ff 79bd b07a b7bd
00000380: b40b 4c3b 8c51 6cbc b518 873d 5da7 78bd
00000390: 13bb c53c fbee 763e 48cc 863e 8368 2b3d
000003a0: 4456 4c3d 76b1 413d 9629 7e3d 0fc1 dbbd
000003b0: c455 a0bd 8c02 b6be 0eca 403b 7d84 f33d
000003c0: 98a6 d13d 87c6 1f3d af6c 983c 97db d33c
000003d0: 3013 59be e65c 67bd 8964 92bd 7d52 53bd
000003e0: 1154 373d 1d59 33bd 4810 2cbe 1c7b a7bd
000003f0: 94d1 833e d467 4fbe d763 b0bd f02d a7bc
0.051732916 0.28559953 -0.0643897 -0.083848104 0.11541726 0.11505093 0.16358876 0.024531988
0.07196822 0.23186293 -0.016518349 0.042411737 -0.025428336 0.105633974 -0.021998806 0.061270576
0.1500922 0.0054031606 -0.026280362 0.15517394 0.094602495 0.20520847 0.04520685 0.20231271
-0.0053209458 0.044722542 0.20850186 0.12246856 0.17730379 -0.023465173 0.1922746 0.085364245
0.13577811 0.24990427 0.09850509 0.09615632 -0.019333497 0.096641086 0.04700722 -0.029438265
0.17311771 -0.067756064 -0.025997143 -0.026077872 -0.09245085 -0.18510756 0.17276625 0.059938073
0.054551627 0.14932668 0.21706578 0.13557021 0.21786064 0.15915895 0.003255921 0.18100181
-0.02194492 0.0781081 0.19343103 0.18785775 -0.011117052 0.09201235 0.025087368 0.101926595
0.13482465 -0.081137195 0.068759955 -0.006531603 -0.02582039 0.32654923 -0.013126865 -0.011524671
0.17003344 0.04760646 -0.020239877 0.085765935 0.044675194 0.11693472 -0.02602184 0.023503441
0.029875346 -0.010057533 0.15938409 -0.1474198 -0.0301156 0.10075594 0.035728812 0.018869337
0.0005913195 -0.09835322 0.12895572 0.05418724 -0.026488695 -0.024598824 -0.017690085 0.058611777
-0.015379793 0.05915051 -0.04390651 0.12214955 0.007824606 0.16109923 0.1538232 0.041919533
0.24866213 -0.015383664 0.072912514 0.146539 0.01797491 0.08478716 0.21872446 0.13350019
0.20067635 0.2258104 -0.016688183 0.09663913 -0.026581645 -0.022697672 0.09737514 0.0045352676
-0.031062623 0.1797686 -0.037598792 -0.014483596 0.11851174 0.014174599 -0.08290311 -0.012178235
0.06767681 0.091653876 -0.030592604 -0.073178865 -0.040229563 0.24373291 0.20534725 -0.028595561
-0.02252264 0.2627758 0.17481852 -0.024122657 0.17322072 -0.020444266 0.13536903 0.020654362
0.031290457 0.19645536 0.13015234 0.094806485 0.22138621 -0.09965993 -0.19157273 -0.19669165
0.03869709 -0.0038434998 -0.21884263 -0.11442187 -0.15014648 0.23292854 -0.36530948 -0.14183852
0.02189125 -0.16983491 0.037953343 0.024585836 0.022103012 -0.06869839 -0.06943129 -0.06842182
0.033130977 -0.030608322 -0.088175066 -0.090570726 -0.13557133 -0.08960084 -0.24529994 -0.35636675
-0.11676021 -0.13663538 -0.029330792 0.032073744 0.17208372 -0.38526207 -0.09753885 -0.05965181
-0.24532141 -0.16201615 0.010574571 -0.07825244 -0.22934662 0.03354502 -0.25754836 0.062391974
0.009283869 0.0263649 0.0430584 0.031179845 -0.11859283 -0.06892189 0.039969996 -0.043493457
0.20786467 -0.059409242 -0.013786595 -0.0011472013 0.13846833 -0.013325666 0.032573484 -0.124708615
0.2748219 -0.081949174 0.096011445 0.12422148 -0.29508898 -0.12475507 0.09063627 0.08842749
-0.25200674 0.049424473 0.026281327 -0.075938664 -0.009176416 -0.053484574 -0.06103427 -0.08958948
0.0031134905 -0.014423739 0.06596509 -0.060706485 0.024137056 0.24114601 0.2632773 0.041847717
0.049886957 0.04728838 0.06205138 -0.107301824 -0.078288585 -0.35548818 0.002941731 0.118905045
0.10236853 0.03900769 0.018606512 0.025861545 -0.21198726 -0.05648508 -0.07148082 -0.05159234
0.044757906 -0.043786157 -0.16803086 -0.08177778 0.25745833 -0.20254451 -0.08612793 -0.020407647

output.bias f4 [2]
00000000: 7bfc 3cbd 0e48 883b
-0.04613922 0.00415898
